…
E0424 16:54:36.027756 16497 upgrade_proto.cpp:620] Attempting to upgrade input file specified using deprecated V1LayerParameter: train_val.prototxt
I0424 16:54:36.028369 16497 upgrade_proto.cpp:628] Successfully upgraded file specified using deprecated V1LayerParameter
I0424 16:54:36.028538 16497 net.cpp:258] The NetState phase (0) differed from the phase (1) specified by a rule in layer data
I0424 16:54:36.028908 16497 net.cpp:42] Initializing net from parameters: 
name: "FCN"
state {
  phase: TRAIN
}
layer {
  name: "data"
  type: "HDF5Data"
  top: "data"
  top: "inputmap"
  include {
    phase: TRAIN
  }
  hdf5_data_param {
    source: "./train_list.txt"
    batch_size: 6
  }
}
layer {
  name: "conv1_1"
  type: "Convolution"
  bottom: "data"
  top: "conv1_1"
  param {
    lr_mult: 1
    decay_mult: 1
  }
  param {
    lr_mult: 1
    decay_mult: 0
  }
  convolution_param {
    num_output: 64
    pad: 100
    kernel_size: 3
    engine: CAFFE
  }
}
layer {
  name: "relu1_1"
  type: "ReLU"
  bottom: "conv1_1"
  top: "conv1_1"
}
layer {
  name: "conv1_2"
  type: "Convolution"
  bottom: "conv1_1"
  top: "conv1_2"
  param {
    lr_mult: 1
    decay_mult: 1
  }
  param {
    lr_mult: 1
    decay_mult: 0
  }
  convolution_param {
    num_output: 64
    pad: 1
    kernel_size: 3
    engine: CAFFE
  }
}
layer {
  name: "relu1_2"
  type: "ReLU"
  bottom: "conv1_2"
  top: "conv1_2"
}
layer {
  name: "pool1"
  type: "Pooling"
  bottom: "conv1_2"
  top: "pool1"
  pooling_param {
    pool: MAX
    kernel_size: 2
    stride: 2
  }
}
layer {
  name: "conv2_1"
  type: "Convolution"
  bottom: "pool1"
  top: "conv2_1"
  param {
    lr_mult: 1
    decay_mult: 1
  }
  param {
    lr_mult: 1
    decay_mult: 0
  }
  convolution_param {
    num_output: 128
    pad: 1
    kernel_size: 3
    engine: CAFFE
  }
}
layer {
  name: "relu2_1"
  type: "ReLU"
  bottom: "conv2_1"
  top: "conv2_1"
}
layer {
  name: "conv2_2"
  type: "Convolution"
  bottom: "conv2_1"
  top: "conv2_2"
  param {
    lr_mult: 1
    decay_mult: 1
  }
  param {
    lr_mult: 1
    decay_mult: 0
  }
  convolution_param {
    num_output: 128
    pad: 1
    kernel_size: 3
    engine: CAFFE
  }
}
layer {
  name: "relu2_2"
  type: "ReLU"
  bottom: "conv2_2"
  top: "conv2_2"
}
layer {
  name: "pool2"
  type: "Pooling"
  bottom: "conv2_2"
  top: "pool2"
  pooling_param {
    pool: MAX
    kernel_size: 2
    stride: 2
  }
}
layer {
  name: "conv3_1"
  type: "Convolution"
  bottom: "pool2"
  top: "conv3_1"
  param {
    lr_mult: 1
    decay_mult: 1
  }
  param {
    lr_mult: 1
    decay_mult: 0
  }
  convolution_param {
    num_output: 256
    pad: 1
    kernel_size: 3
    engine: CAFFE
  }
}
layer {
  name: "relu3_1"
  type: "ReLU"
  bottom: "conv3_1"
  top: "conv3_1"
}
layer {
  name: "conv3_2"
  type: "Convolution"
  bottom: "conv3_1"
  top: "conv3_2"
  param {
    lr_mult: 1
    decay_mult: 1
  }
  param {
    lr_mult: 1
    decay_mult: 0
  }
  convolution_param {
    num_output: 256
    pad: 1
    kernel_size: 3
    engine: CAFFE
  }
}
layer {
  name: "relu3_2"
  type: "ReLU"
  bottom: "conv3_2"
  top: "conv3_2"
}
layer {
  name: "conv3_3"
  type: "Convolution"
  bottom: "conv3_2"
  top: "conv3_3"
  param {
    lr_mult: 1
    decay_mult: 1
  }
  param {
    lr_mult: 1
    decay_mult: 0
  }
  convolution_param {
    num_output: 256
    pad: 1
    kernel_size: 3
    engine: CAFFE
  }
}
layer {
  name: "relu3_3"
  type: "ReLU"
  bottom: "conv3_3"
  top: "conv3_3"
}
layer {
  name: "pool3"
  type: "Pooling"
  bottom: "conv3_3"
  top: "pool3"
  pooling_param {
    pool: MAX
    kernel_size: 2
    stride: 2
  }
}
layer {
  name: "conv4_1"
  type: "Convolution"
  bottom: "pool3"
  top: "conv4_1"
  param {
    lr_mult: 1
    decay_mult: 1
  }
  param {
    lr_mult: 1
    decay_mult: 0
  }
  convolution_param {
    num_output: 512
    pad: 1
    kernel_size: 3
    engine: CAFFE
  }
}
layer {
  name: "relu4_1"
  type: "ReLU"
  bottom: "conv4_1"
  top: "conv4_1"
}
layer {
  name: "conv4_2"
  type: "Convolution"
  bottom: "conv4_1"
  top: "conv4_2"
  param {
    lr_mult: 1
    decay_mult: 1
  }
  param {
    lr_mult: 1
    decay_mult: 0
  }
  convolution_param {
    num_output: 512
    pad: 1
    kernel_size: 3
    engine: CAFFE
  }
}
layer {
  name: "relu4_2"
  type: "ReLU"
  bottom: "conv4_2"
  top: "conv4_2"
}
layer {
  name: "conv4_3"
  type: "Convolution"
  bottom: "conv4_2"
  top: "conv4_3"
  param {
    lr_mult: 1
    decay_mult: 1
  }
  param {
    lr_mult: 1
    decay_mult: 0
  }
  convolution_param {
    num_output: 512
    pad: 1
    kernel_size: 3
    engine: CAFFE
  }
}
layer {
  name: "relu4_3"
  type: "ReLU"
  bottom: "conv4_3"
  top: "conv4_3"
}
layer {
  name: "pool4"
  type: "Pooling"
  bottom: "conv4_3"
  top: "pool4"
  pooling_param {
    pool: MAX
    kernel_size: 2
    stride: 2
  }
}
layer {
  name: "conv5_1"
  type: "Convolution"
  bottom: "pool4"
  top: "conv5_1"
  param {
    lr_mult: 1
    decay_mult: 1
  }
  param {
    lr_mult: 1
    decay_mult: 0
  }
  convolution_param {
    num_output: 512
    pad: 1
    kernel_size: 3
    engine: CAFFE
  }
}
layer {
  name: "relu5_1"
  type: "ReLU"
  bottom: "conv5_1"
  top: "conv5_1"
}
layer {
  name: "conv5_2"
  type: "Convolution"
  bottom: "conv5_1"
  top: "conv5_2"
  param {
    lr_mult: 1
    decay_mult: 1
  }
  param {
    lr_mult: 1
    decay_mult: 0
  }
  convolution_param {
    num_output: 512
    pad: 1
    kernel_size: 3
    engine: CAFFE
  }
}
layer {
  name: "relu5_2"
  type: "ReLU"
  bottom: "conv5_2"
  top: "conv5_2"
}
layer {
  name: "conv5_3"
  type: "Convolution"
  bottom: "conv5_2"
  top: "conv5_3"
  param {
    lr_mult: 1
    decay_mult: 1
  }
  param {
    lr_mult: 1
    decay_mult: 0
  }
  convolution_param {
    num_output: 512
    pad: 1
    kernel_size: 3
    engine: CAFFE
  }
}
layer {
  name: "relu5_3"
  type: "ReLU"
  bottom: "conv5_3"
  top: "conv5_3"
}
layer {
  name: "pool5"
  type: "Pooling"
  bottom: "conv5_3"
  top: "pool5"
  pooling_param {
    pool: MAX
    kernel_size: 2
    stride: 2
  }
}
layer {
  name: "conv6"
  type: "Convolution"
  bottom: "pool5"
  top: "conv6"
  param {
    lr_mult: 1
    decay_mult: 1
  }
  param {
    lr_mult: 2
    decay_mult: 0
  }
  convolution_param {
    num_output: 4096
    kernel_size: 7
    engine: CAFFE
  }
}
layer {
  name: "relu6"
  type: "ReLU"
  bottom: "conv6"
  top: "conv6"
}
layer {
  name: "drop6"
  type: "Dropout"
  bottom: "conv6"
  top: "conv6"
  dropout_param {
    dropout_ratio: 0.5
  }
}
layer {
  name: "conv7"
  type: "Convolution"
  bottom: "conv6"
  top: "conv7"
  param {
    lr_mult: 1
    decay_mult: 1
  }
  param {
    lr_mult: 2
    decay_mult: 0
  }
  convolution_param {
    num_output: 4096
    kernel_size: 1
    engine: CAFFE
  }
}
layer {
  name: "relu7"
  type: "ReLU"
  bottom: "conv7"
  top: "conv7"
}
layer {
  name: "drop7"
  type: "Dropout"
  bottom: "conv7"
  top: "conv7"
  dropout_param {
    dropout_ratio: 0.5
  }
}
layer {
  name: "score"
  type: "Convolution"
  bottom: "conv7"
  top: "score"
  param {
    lr_mult: 1
    decay_mult: 1
  }
  param {
    lr_mult: 2
    decay_mult: 0
  }
  convolution_param {
    num_output: 1
    kernel_size: 1
    weight_filler {
      type: "gaussian"
      std: 0.01
    }
    bias_filler {
      type: "constant"
      value: 0
    }
    engine: CAFFE
  }
}
layer {
  name: "deconv"
  type: "Deconvolution"
  bottom: "score"
  top: "bigmap"
  param {
    lr_mult: 1
    decay_mult: 1
  }
  param {
    lr_mult: 2
    decay_mult: 0
  }
  convolution_param {
    num_output: 1
    kernel_size: 64
    stride: 32
    weight_filler {
      type: "gaussian"
      std: 0.01
    }
    bias_filler {
      type: "constant"
      value: 0
    }
  }
}
layer {
  name: "crop_finetune"
  type: "Crop"
  bottom: "bigmap"
  bottom: "data"
  top: "map"
}
layer {
  name: "sigmoid"
  type: "Sigmoid"
  bottom: "map"
  top: "outmap"
}
layer {
  name: "loss"
  type: "EuclideanLoss"
  bottom: "outmap"
  bottom: "inputmap"
  top: "loss"
}
I0424 16:54:36.029216 16497 layer_factory.hpp:74] Creating layer data
I0424 16:54:36.029258 16497 net.cpp:85] Creating Layer data
I0424 16:54:36.029295 16497 net.cpp:339] data -> data
I0424 16:54:36.029345 16497 net.cpp:339] data -> inputmap
I0424 16:54:36.029378 16497 net.cpp:114] Setting up data
I0424 16:54:36.029403 16497 hdf5_data_layer.cpp:66] Loading list of HDF5 filenames from: ./train_list.txt
I0424 16:54:36.029526 16497 hdf5_data_layer.cpp:80] Number of HDF5 files: 19
I0424 16:54:40.637469 16497 net.cpp:121] Top shape: 6 3 500 500 (4500000)
I0424 16:54:40.637572 16497 net.cpp:121] Top shape: 6 1 500 500 (1500000)
I0424 16:54:40.637609 16497 layer_factory.hpp:74] Creating layer data_data_0_split
I0424 16:54:40.637655 16497 net.cpp:85] Creating Layer data_data_0_split
I0424 16:54:40.637672 16497 net.cpp:381] data_data_0_split <- data
I0424 16:54:40.637706 16497 net.cpp:339] data_data_0_split -> data_data_0_split_0
I0424 16:54:40.637735 16497 net.cpp:339] data_data_0_split -> data_data_0_split_1
I0424 16:54:40.637753 16497 net.cpp:114] Setting up data_data_0_split
I0424 16:54:40.637783 16497 net.cpp:121] Top shape: 6 3 500 500 (4500000)
I0424 16:54:40.637796 16497 net.cpp:121] Top shape: 6 3 500 500 (4500000)
I0424 16:54:40.637809 16497 layer_factory.hpp:74] Creating layer conv1_1
I0424 16:54:40.637841 16497 net.cpp:85] Creating Layer conv1_1
I0424 16:54:40.637856 16497 net.cpp:381] conv1_1 <- data_data_0_split_0
I0424 16:54:40.637871 16497 net.cpp:339] conv1_1 -> conv1_1
I0424 16:54:40.637887 16497 net.cpp:114] Setting up conv1_1
I0424 16:54:40.640676 16497 net.cpp:121] Top shape: 6 64 698 698 (187086336)
I0424 16:54:40.640719 16497 layer_factory.hpp:74] Creating layer relu1_1
I0424 16:54:40.640741 16497 net.cpp:85] Creating Layer relu1_1
I0424 16:54:40.640753 16497 net.cpp:381] relu1_1 <- conv1_1
I0424 16:54:40.640768 16497 net.cpp:328] relu1_1 -> conv1_1 (in-place)
I0424 16:54:40.640784 16497 net.cpp:114] Setting up relu1_1
I0424 16:54:40.640804 16497 net.cpp:121] Top shape: 6 64 698 698 (187086336)
I0424 16:54:40.640817 16497 layer_factory.hpp:74] Creating layer conv1_2
I0424 16:54:40.640835 16497 net.cpp:85] Creating Layer conv1_2
I0424 16:54:40.640846 16497 net.cpp:381] conv1_2 <- conv1_1
I0424 16:54:40.640861 16497 net.cpp:339] conv1_2 -> conv1_2
I0424 16:54:40.640877 16497 net.cpp:114] Setting up conv1_2
I0424 16:54:40.643596 16497 net.cpp:121] Top shape: 6 64 698 698 (187086336)
I0424 16:54:40.643631 16497 layer_factory.hpp:74] Creating layer relu1_2
I0424 16:54:40.643652 16497 net.cpp:85] Creating Layer relu1_2
I0424 16:54:40.643668 16497 net.cpp:381] relu1_2 <- conv1_2
I0424 16:54:40.643682 16497 net.cpp:328] relu1_2 -> conv1_2 (in-place)
I0424 16:54:40.643695 16497 net.cpp:114] Setting up relu1_2
I0424 16:54:40.643708 16497 net.cpp:121] Top shape: 6 64 698 698 (187086336)
I0424 16:54:40.643723 16497 layer_factory.hpp:74] Creating layer pool1
I0424 16:54:40.643738 16497 net.cpp:85] Creating Layer pool1
I0424 16:54:40.643751 16497 net.cpp:381] pool1 <- conv1_2
I0424 16:54:40.643764 16497 net.cpp:339] pool1 -> pool1
I0424 16:54:40.643779 16497 net.cpp:114] Setting up pool1
I0424 16:54:40.643822 16497 net.cpp:121] Top shape: 6 64 349 349 (46771584)
I0424 16:54:40.643836 16497 layer_factory.hpp:74] Creating layer conv2_1
I0424 16:54:40.643856 16497 net.cpp:85] Creating Layer conv2_1
I0424 16:54:40.643868 16497 net.cpp:381] conv2_1 <- pool1
I0424 16:54:40.643882 16497 net.cpp:339] conv2_1 -> conv2_1
I0424 16:54:40.643898 16497 net.cpp:114] Setting up conv2_1
I0424 16:54:40.644486 16497 net.cpp:121] Top shape: 6 128 349 349 (93543168)
I0424 16:54:40.644515 16497 layer_factory.hpp:74] Creating layer relu2_1
I0424 16:54:40.644546 16497 net.cpp:85] Creating Layer relu2_1
I0424 16:54:40.644582 16497 net.cpp:381] relu2_1 <- conv2_1
I0424 16:54:40.644615 16497 net.cpp:328] relu2_1 -> conv2_1 (in-place)
I0424 16:54:40.644634 16497 net.cpp:114] Setting up relu2_1
I0424 16:54:40.644649 16497 net.cpp:121] Top shape: 6 128 349 349 (93543168)
I0424 16:54:40.644660 16497 layer_factory.hpp:74] Creating layer conv2_2
I0424 16:54:40.644675 16497 net.cpp:85] Creating Layer conv2_2
I0424 16:54:40.644687 16497 net.cpp:381] conv2_2 <- conv2_1
I0424 16:54:40.644701 16497 net.cpp:339] conv2_2 -> conv2_2
I0424 16:54:40.644716 16497 net.cpp:114] Setting up conv2_2
I0424 16:54:40.645726 16497 net.cpp:121] Top shape: 6 128 349 349 (93543168)
I0424 16:54:40.645756 16497 layer_factory.hpp:74] Creating layer relu2_2
I0424 16:54:40.645777 16497 net.cpp:85] Creating Layer relu2_2
I0424 16:54:40.645788 16497 net.cpp:381] relu2_2 <- conv2_2
I0424 16:54:40.645802 16497 net.cpp:328] relu2_2 -> conv2_2 (in-place)
I0424 16:54:40.645817 16497 net.cpp:114] Setting up relu2_2
I0424 16:54:40.645830 16497 net.cpp:121] Top shape: 6 128 349 349 (93543168)
I0424 16:54:40.645843 16497 layer_factory.hpp:74] Creating layer pool2
I0424 16:54:40.645858 16497 net.cpp:85] Creating Layer pool2
I0424 16:54:40.645867 16497 net.cpp:381] pool2 <- conv2_2
I0424 16:54:40.645880 16497 net.cpp:339] pool2 -> pool2
I0424 16:54:40.645896 16497 net.cpp:114] Setting up pool2
I0424 16:54:40.645915 16497 net.cpp:121] Top shape: 6 128 175 175 (23520000)
I0424 16:54:40.645927 16497 layer_factory.hpp:74] Creating layer conv3_1
I0424 16:54:40.645944 16497 net.cpp:85] Creating Layer conv3_1
I0424 16:54:40.645957 16497 net.cpp:381] conv3_1 <- pool2
I0424 16:54:40.645972 16497 net.cpp:339] conv3_1 -> conv3_1
I0424 16:54:40.645988 16497 net.cpp:114] Setting up conv3_1
I0424 16:54:40.647282 16497 net.cpp:121] Top shape: 6 256 175 175 (47040000)
I0424 16:54:40.647315 16497 layer_factory.hpp:74] Creating layer relu3_1
I0424 16:54:40.647335 16497 net.cpp:85] Creating Layer relu3_1
I0424 16:54:40.647346 16497 net.cpp:381] relu3_1 <- conv3_1
I0424 16:54:40.647361 16497 net.cpp:328] relu3_1 -> conv3_1 (in-place)
I0424 16:54:40.647375 16497 net.cpp:114] Setting up relu3_1
I0424 16:54:40.647389 16497 net.cpp:121] Top shape: 6 256 175 175 (47040000)
I0424 16:54:40.647402 16497 layer_factory.hpp:74] Creating layer conv3_2
I0424 16:54:40.647423 16497 net.cpp:85] Creating Layer conv3_2
I0424 16:54:40.647434 16497 net.cpp:381] conv3_2 <- conv3_1
I0424 16:54:40.647451 16497 net.cpp:339] conv3_2 -> conv3_2
I0424 16:54:40.647466 16497 net.cpp:114] Setting up conv3_2
I0424 16:54:40.650722 16497 net.cpp:121] Top shape: 6 256 175 175 (47040000)
I0424 16:54:40.650753 16497 layer_factory.hpp:74] Creating layer relu3_2
I0424 16:54:40.650770 16497 net.cpp:85] Creating Layer relu3_2
I0424 16:54:40.650782 16497 net.cpp:381] relu3_2 <- conv3_2
I0424 16:54:40.650797 16497 net.cpp:328] relu3_2 -> conv3_2 (in-place)
I0424 16:54:40.650810 16497 net.cpp:114] Setting up relu3_2
I0424 16:54:40.650825 16497 net.cpp:121] Top shape: 6 256 175 175 (47040000)
I0424 16:54:40.650835 16497 layer_factory.hpp:74] Creating layer conv3_3
I0424 16:54:40.650856 16497 net.cpp:85] Creating Layer conv3_3
I0424 16:54:40.650869 16497 net.cpp:381] conv3_3 <- conv3_2
I0424 16:54:40.650884 16497 net.cpp:339] conv3_3 -> conv3_3
I0424 16:54:40.650898 16497 net.cpp:114] Setting up conv3_3
I0424 16:54:40.654193 16497 net.cpp:121] Top shape: 6 256 175 175 (47040000)
I0424 16:54:40.654224 16497 layer_factory.hpp:74] Creating layer relu3_3
I0424 16:54:40.654242 16497 net.cpp:85] Creating Layer relu3_3
I0424 16:54:40.654254 16497 net.cpp:381] relu3_3 <- conv3_3
I0424 16:54:40.654268 16497 net.cpp:328] relu3_3 -> conv3_3 (in-place)
I0424 16:54:40.654286 16497 net.cpp:114] Setting up relu3_3
I0424 16:54:40.654300 16497 net.cpp:121] Top shape: 6 256 175 175 (47040000)
I0424 16:54:40.654314 16497 layer_factory.hpp:74] Creating layer pool3
I0424 16:54:40.654331 16497 net.cpp:85] Creating Layer pool3
I0424 16:54:40.654343 16497 net.cpp:381] pool3 <- conv3_3
I0424 16:54:40.654357 16497 net.cpp:339] pool3 -> pool3
I0424 16:54:40.654386 16497 net.cpp:114] Setting up pool3
I0424 16:54:40.654422 16497 net.cpp:121] Top shape: 6 256 88 88 (11894784)
I0424 16:54:40.654435 16497 layer_factory.hpp:74] Creating layer conv4_1
I0424 16:54:40.654454 16497 net.cpp:85] Creating Layer conv4_1
I0424 16:54:40.654467 16497 net.cpp:381] conv4_1 <- pool3
I0424 16:54:40.654484 16497 net.cpp:339] conv4_1 -> conv4_1
I0424 16:54:40.654500 16497 net.cpp:114] Setting up conv4_1
I0424 16:54:40.660084 16497 net.cpp:121] Top shape: 6 512 88 88 (23789568)
I0424 16:54:40.660118 16497 layer_factory.hpp:74] Creating layer relu4_1
I0424 16:54:40.660135 16497 net.cpp:85] Creating Layer relu4_1
I0424 16:54:40.660145 16497 net.cpp:381] relu4_1 <- conv4_1
I0424 16:54:40.660161 16497 net.cpp:328] relu4_1 -> conv4_1 (in-place)
I0424 16:54:40.660176 16497 net.cpp:114] Setting up relu4_1
I0424 16:54:40.660190 16497 net.cpp:121] Top shape: 6 512 88 88 (23789568)
I0424 16:54:40.660205 16497 layer_factory.hpp:74] Creating layer conv4_2
I0424 16:54:40.660223 16497 net.cpp:85] Creating Layer conv4_2
I0424 16:54:40.660234 16497 net.cpp:381] conv4_2 <- conv4_1
I0424 16:54:40.660248 16497 net.cpp:339] conv4_2 -> conv4_2
I0424 16:54:40.660261 16497 net.cpp:114] Setting up conv4_2
I0424 16:54:40.671728 16497 net.cpp:121] Top shape: 6 512 88 88 (23789568)
I0424 16:54:40.671828 16497 layer_factory.hpp:74] Creating layer relu4_2
I0424 16:54:40.671874 16497 net.cpp:85] Creating Layer relu4_2
I0424 16:54:40.671891 16497 net.cpp:381] relu4_2 <- conv4_2
I0424 16:54:40.671916 16497 net.cpp:328] relu4_2 -> conv4_2 (in-place)
I0424 16:54:40.671936 16497 net.cpp:114] Setting up relu4_2
I0424 16:54:40.671953 16497 net.cpp:121] Top shape: 6 512 88 88 (23789568)
I0424 16:54:40.671969 16497 layer_factory.hpp:74] Creating layer conv4_3
I0424 16:54:40.671986 16497 net.cpp:85] Creating Layer conv4_3
I0424 16:54:40.671998 16497 net.cpp:381] conv4_3 <- conv4_2
I0424 16:54:40.672016 16497 net.cpp:339] conv4_3 -> conv4_3
I0424 16:54:40.672040 16497 net.cpp:114] Setting up conv4_3
I0424 16:54:40.682626 16497 net.cpp:121] Top shape: 6 512 88 88 (23789568)
I0424 16:54:40.682693 16497 layer_factory.hpp:74] Creating layer relu4_3
I0424 16:54:40.682718 16497 net.cpp:85] Creating Layer relu4_3
I0424 16:54:40.682730 16497 net.cpp:381] relu4_3 <- conv4_3
I0424 16:54:40.682744 16497 net.cpp:328] relu4_3 -> conv4_3 (in-place)
I0424 16:54:40.682760 16497 net.cpp:114] Setting up relu4_3
I0424 16:54:40.682773 16497 net.cpp:121] Top shape: 6 512 88 88 (23789568)
I0424 16:54:40.682785 16497 layer_factory.hpp:74] Creating layer pool4
I0424 16:54:40.682801 16497 net.cpp:85] Creating Layer pool4
I0424 16:54:40.682811 16497 net.cpp:381] pool4 <- conv4_3
I0424 16:54:40.682829 16497 net.cpp:339] pool4 -> pool4
I0424 16:54:40.682852 16497 net.cpp:114] Setting up pool4
I0424 16:54:40.682888 16497 net.cpp:121] Top shape: 6 512 44 44 (5947392)
I0424 16:54:40.682900 16497 layer_factory.hpp:74] Creating layer conv5_1
I0424 16:54:40.682919 16497 net.cpp:85] Creating Layer conv5_1
I0424 16:54:40.682940 16497 net.cpp:381] conv5_1 <- pool4
I0424 16:54:40.682956 16497 net.cpp:339] conv5_1 -> conv5_1
I0424 16:54:40.682975 16497 net.cpp:114] Setting up conv5_1
I0424 16:54:40.692966 16497 net.cpp:121] Top shape: 6 512 44 44 (5947392)
I0424 16:54:40.693044 16497 layer_factory.hpp:74] Creating layer relu5_1
I0424 16:54:40.693078 16497 net.cpp:85] Creating Layer relu5_1
I0424 16:54:40.693096 16497 net.cpp:381] relu5_1 <- conv5_1
I0424 16:54:40.693121 16497 net.cpp:328] relu5_1 -> conv5_1 (in-place)
I0424 16:54:40.693147 16497 net.cpp:114] Setting up relu5_1
I0424 16:54:40.693168 16497 net.cpp:121] Top shape: 6 512 44 44 (5947392)
I0424 16:54:40.693181 16497 layer_factory.hpp:74] Creating layer conv5_2
I0424 16:54:40.693202 16497 net.cpp:85] Creating Layer conv5_2
I0424 16:54:40.693217 16497 net.cpp:381] conv5_2 <- conv5_1
I0424 16:54:40.693233 16497 net.cpp:339] conv5_2 -> conv5_2
I0424 16:54:40.693250 16497 net.cpp:114] Setting up conv5_2
I0424 16:54:40.704124 16497 net.cpp:121] Top shape: 6 512 44 44 (5947392)
I0424 16:54:40.704216 16497 layer_factory.hpp:74] Creating layer relu5_2
I0424 16:54:40.704272 16497 net.cpp:85] Creating Layer relu5_2
I0424 16:54:40.704295 16497 net.cpp:381] relu5_2 <- conv5_2
I0424 16:54:40.704315 16497 net.cpp:328] relu5_2 -> conv5_2 (in-place)
I0424 16:54:40.704340 16497 net.cpp:114] Setting up relu5_2
I0424 16:54:40.704363 16497 net.cpp:121] Top shape: 6 512 44 44 (5947392)
I0424 16:54:40.704383 16497 layer_factory.hpp:74] Creating layer conv5_3
I0424 16:54:40.704411 16497 net.cpp:85] Creating Layer conv5_3
I0424 16:54:40.704430 16497 net.cpp:381] conv5_3 <- conv5_2
I0424 16:54:40.704462 16497 net.cpp:339] conv5_3 -> conv5_3
I0424 16:54:40.704483 16497 net.cpp:114] Setting up conv5_3
I0424 16:54:40.714797 16497 net.cpp:121] Top shape: 6 512 44 44 (5947392)
I0424 16:54:40.714860 16497 layer_factory.hpp:74] Creating layer relu5_3
I0424 16:54:40.714887 16497 net.cpp:85] Creating Layer relu5_3
I0424 16:54:40.714900 16497 net.cpp:381] relu5_3 <- conv5_3
I0424 16:54:40.714923 16497 net.cpp:328] relu5_3 -> conv5_3 (in-place)
I0424 16:54:40.714944 16497 net.cpp:114] Setting up relu5_3
I0424 16:54:40.714962 16497 net.cpp:121] Top shape: 6 512 44 44 (5947392)
I0424 16:54:40.714975 16497 layer_factory.hpp:74] Creating layer pool5
I0424 16:54:40.715010 16497 net.cpp:85] Creating Layer pool5
I0424 16:54:40.715028 16497 net.cpp:381] pool5 <- conv5_3
I0424 16:54:40.715047 16497 net.cpp:339] pool5 -> pool5
I0424 16:54:40.715067 16497 net.cpp:114] Setting up pool5
I0424 16:54:40.715096 16497 net.cpp:121] Top shape: 6 512 22 22 (1486848)
I0424 16:54:40.715111 16497 layer_factory.hpp:74] Creating layer conv6
I0424 16:54:40.715129 16497 net.cpp:85] Creating Layer conv6
I0424 16:54:40.715142 16497 net.cpp:381] conv6 <- pool5
I0424 16:54:40.715163 16497 net.cpp:339] conv6 -> conv6
I0424 16:54:40.715188 16497 net.cpp:114] Setting up conv6
I0424 16:54:41.060783 16497 net.cpp:121] Top shape: 6 4096 16 16 (6291456)
I0424 16:54:41.060878 16497 layer_factory.hpp:74] Creating layer relu6
I0424 16:54:41.060905 16497 net.cpp:85] Creating Layer relu6
I0424 16:54:41.060916 16497 net.cpp:381] relu6 <- conv6
I0424 16:54:41.060930 16497 net.cpp:328] relu6 -> conv6 (in-place)
I0424 16:54:41.060945 16497 net.cpp:114] Setting up relu6
I0424 16:54:41.060956 16497 net.cpp:121] Top shape: 6 4096 16 16 (6291456)
I0424 16:54:41.060964 16497 layer_factory.hpp:74] Creating layer drop6
I0424 16:54:41.060992 16497 net.cpp:85] Creating Layer drop6
I0424 16:54:41.061002 16497 net.cpp:381] drop6 <- conv6
I0424 16:54:41.061010 16497 net.cpp:328] drop6 -> conv6 (in-place)
I0424 16:54:41.061020 16497 net.cpp:114] Setting up drop6
I0424 16:54:41.061043 16497 net.cpp:121] Top shape: 6 4096 16 16 (6291456)
I0424 16:54:41.061059 16497 layer_factory.hpp:74] Creating layer conv7
I0424 16:54:41.061074 16497 net.cpp:85] Creating Layer conv7
I0424 16:54:41.061086 16497 net.cpp:381] conv7 <- conv6
I0424 16:54:41.061097 16497 net.cpp:339] conv7 -> conv7
I0424 16:54:41.061110 16497 net.cpp:114] Setting up conv7
I0424 16:54:41.116096 16497 net.cpp:121] Top shape: 6 4096 16 16 (6291456)
I0424 16:54:41.116181 16497 layer_factory.hpp:74] Creating layer relu7
I0424 16:54:41.116202 16497 net.cpp:85] Creating Layer relu7
I0424 16:54:41.116214 16497 net.cpp:381] relu7 <- conv7
I0424 16:54:41.116226 16497 net.cpp:328] relu7 -> conv7 (in-place)
I0424 16:54:41.116245 16497 net.cpp:114] Setting up relu7
I0424 16:54:41.116256 16497 net.cpp:121] Top shape: 6 4096 16 16 (6291456)
I0424 16:54:41.116266 16497 layer_factory.hpp:74] Creating layer drop7
I0424 16:54:41.116278 16497 net.cpp:85] Creating Layer drop7
I0424 16:54:41.116286 16497 net.cpp:381] drop7 <- conv7
I0424 16:54:41.116293 16497 net.cpp:328] drop7 -> conv7 (in-place)
I0424 16:54:41.116303 16497 net.cpp:114] Setting up drop7
I0424 16:54:41.116315 16497 net.cpp:121] Top shape: 6 4096 16 16 (6291456)
I0424 16:54:41.116322 16497 layer_factory.hpp:74] Creating layer score
I0424 16:54:41.116340 16497 net.cpp:85] Creating Layer score
I0424 16:54:41.116353 16497 net.cpp:381] score <- conv7
I0424 16:54:41.116369 16497 net.cpp:339] score -> score
I0424 16:54:41.116405 16497 net.cpp:114] Setting up score
I0424 16:54:41.117184 16497 net.cpp:121] Top shape: 6 1 16 16 (1536)
I0424 16:54:41.117209 16497 layer_factory.hpp:74] Creating layer deconv
I0424 16:54:41.117225 16497 net.cpp:85] Creating Layer deconv
I0424 16:54:41.117233 16497 net.cpp:381] deconv <- score
I0424 16:54:41.117244 16497 net.cpp:339] deconv -> bigmap
I0424 16:54:41.117254 16497 net.cpp:114] Setting up deconv
I0424 16:54:41.118366 16497 net.cpp:121] Top shape: 6 1 544 544 (1775616)
I0424 16:54:41.118403 16497 layer_factory.hpp:74] Creating layer crop_finetune
I0424 16:54:41.118422 16497 net.cpp:85] Creating Layer crop_finetune
I0424 16:54:41.118430 16497 net.cpp:381] crop_finetune <- bigmap
I0424 16:54:41.118439 16497 net.cpp:381] crop_finetune <- data_data_0_split_1
I0424 16:54:41.118449 16497 net.cpp:339] crop_finetune -> map
I0424 16:54:41.118460 16497 net.cpp:114] Setting up crop_finetune
I0424 16:54:41.118558 16497 net.cpp:121] Top shape: 6 1 500 500 (1500000)
I0424 16:54:41.118577 16497 layer_factory.hpp:74] Creating layer sigmoid
I0424 16:54:41.118588 16497 net.cpp:85] Creating Layer sigmoid
I0424 16:54:41.118595 16497 net.cpp:381] sigmoid <- map
I0424 16:54:41.118607 16497 net.cpp:339] sigmoid -> outmap
I0424 16:54:41.118619 16497 net.cpp:114] Setting up sigmoid
I0424 16:54:41.118630 16497 net.cpp:121] Top shape: 6 1 500 500 (1500000)
I0424 16:54:41.118638 16497 layer_factory.hpp:74] Creating layer loss
I0424 16:54:41.118652 16497 net.cpp:85] Creating Layer loss
I0424 16:54:41.118659 16497 net.cpp:381] loss <- outmap
I0424 16:54:41.118667 16497 net.cpp:381] loss <- inputmap
I0424 16:54:41.118679 16497 net.cpp:339] loss -> loss
I0424 16:54:41.118690 16497 net.cpp:114] Setting up loss
I0424 16:54:41.118715 16497 net.cpp:121] Top shape: (1)
…
