…
E0426 19:21:33.399806  3281 upgrade_proto.cpp:620] Attempting to upgrade input file specified using deprecated V1LayerParameter: train_val.prototxt
I0426 19:21:33.400334  3281 upgrade_proto.cpp:628] Successfully upgraded file specified using deprecated V1LayerParameter
I0426 19:21:33.400456  3281 net.cpp:258] The NetState phase (0) differed from the phase (1) specified by a rule in layer data
I0426 19:21:33.400799  3281 net.cpp:42] Initializing net from parameters: 
name: "FCN"
state {
  phase: TRAIN
}
layer {
  name: "data"
  type: "HDF5Data"
  top: "data"
  top: "inputmap"
  include {
    phase: TRAIN
  }
  hdf5_data_param {
    source: "./train_list.txt"
    batch_size: 6
  }
}
layer {
  name: "conv1_1"
  type: "Convolution"
  bottom: "data"
  top: "conv1_1"
  param {
    lr_mult: 1
    decay_mult: 1
  }
  param {
    lr_mult: 1
    decay_mult: 0
  }
  convolution_param {
    num_output: 64
    pad: 100
    kernel_size: 3
    engine: CAFFE
  }
}
layer {
  name: "relu1_1"
  type: "ReLU"
  bottom: "conv1_1"
  top: "conv1_1"
}
layer {
  name: "conv1_2"
  type: "Convolution"
  bottom: "conv1_1"
  top: "conv1_2"
  param {
    lr_mult: 1
    decay_mult: 1
  }
  param {
    lr_mult: 1
    decay_mult: 0
  }
  convolution_param {
    num_output: 64
    pad: 1
    kernel_size: 3
    engine: CAFFE
  }
}
layer {
  name: "relu1_2"
  type: "ReLU"
  bottom: "conv1_2"
  top: "conv1_2"
}
layer {
  name: "pool1"
  type: "Pooling"
  bottom: "conv1_2"
  top: "pool1"
  pooling_param {
    pool: MAX
    kernel_size: 2
    stride: 2
  }
}
layer {
  name: "conv2_1"
  type: "Convolution"
  bottom: "pool1"
  top: "conv2_1"
  param {
    lr_mult: 1
    decay_mult: 1
  }
  param {
    lr_mult: 1
    decay_mult: 0
  }
  convolution_param {
    num_output: 128
    pad: 1
    kernel_size: 3
    engine: CAFFE
  }
}
layer {
  name: "relu2_1"
  type: "ReLU"
  bottom: "conv2_1"
  top: "conv2_1"
}
layer {
  name: "conv2_2"
  type: "Convolution"
  bottom: "conv2_1"
  top: "conv2_2"
  param {
    lr_mult: 1
    decay_mult: 1
  }
  param {
    lr_mult: 1
    decay_mult: 0
  }
  convolution_param {
    num_output: 128
    pad: 1
    kernel_size: 3
    engine: CAFFE
  }
}
layer {
  name: "relu2_2"
  type: "ReLU"
  bottom: "conv2_2"
  top: "conv2_2"
}
layer {
  name: "pool2"
  type: "Pooling"
  bottom: "conv2_2"
  top: "pool2"
  pooling_param {
    pool: MAX
    kernel_size: 2
    stride: 2
  }
}
layer {
  name: "conv3_1"
  type: "Convolution"
  bottom: "pool2"
  top: "conv3_1"
  param {
    lr_mult: 1
    decay_mult: 1
  }
  param {
    lr_mult: 1
    decay_mult: 0
  }
  convolution_param {
    num_output: 256
    pad: 1
    kernel_size: 3
    engine: CAFFE
  }
}
layer {
  name: "relu3_1"
  type: "ReLU"
  bottom: "conv3_1"
  top: "conv3_1"
}
layer {
  name: "conv3_2"
  type: "Convolution"
  bottom: "conv3_1"
  top: "conv3_2"
  param {
    lr_mult: 1
    decay_mult: 1
  }
  param {
    lr_mult: 1
    decay_mult: 0
  }
  convolution_param {
    num_output: 256
    pad: 1
    kernel_size: 3
    engine: CAFFE
  }
}
layer {
  name: "relu3_2"
  type: "ReLU"
  bottom: "conv3_2"
  top: "conv3_2"
}
layer {
  name: "conv3_3"
  type: "Convolution"
  bottom: "conv3_2"
  top: "conv3_3"
  param {
    lr_mult: 1
    decay_mult: 1
  }
  param {
    lr_mult: 1
    decay_mult: 0
  }
  convolution_param {
    num_output: 256
    pad: 1
    kernel_size: 3
    engine: CAFFE
  }
}
layer {
  name: "relu3_3"
  type: "ReLU"
  bottom: "conv3_3"
  top: "conv3_3"
}
layer {
  name: "pool3"
  type: "Pooling"
  bottom: "conv3_3"
  top: "pool3"
  pooling_param {
    pool: MAX
    kernel_size: 2
    stride: 2
  }
}
layer {
  name: "conv4_1"
  type: "Convolution"
  bottom: "pool3"
  top: "conv4_1"
  param {
    lr_mult: 1
    decay_mult: 1
  }
  param {
    lr_mult: 1
    decay_mult: 0
  }
  convolution_param {
    num_output: 512
    pad: 1
    kernel_size: 3
    engine: CAFFE
  }
}
layer {
  name: "relu4_1"
  type: "ReLU"
  bottom: "conv4_1"
  top: "conv4_1"
}
layer {
  name: "conv4_2"
  type: "Convolution"
  bottom: "conv4_1"
  top: "conv4_2"
  param {
    lr_mult: 1
    decay_mult: 1
  }
  param {
    lr_mult: 1
    decay_mult: 0
  }
  convolution_param {
    num_output: 512
    pad: 1
    kernel_size: 3
    engine: CAFFE
  }
}
layer {
  name: "relu4_2"
  type: "ReLU"
  bottom: "conv4_2"
  top: "conv4_2"
}
layer {
  name: "conv4_3"
  type: "Convolution"
  bottom: "conv4_2"
  top: "conv4_3"
  param {
    lr_mult: 1
    decay_mult: 1
  }
  param {
    lr_mult: 1
    decay_mult: 0
  }
  convolution_param {
    num_output: 512
    pad: 1
    kernel_size: 3
    engine: CAFFE
  }
}
layer {
  name: "relu4_3"
  type: "ReLU"
  bottom: "conv4_3"
  top: "conv4_3"
}
layer {
  name: "pool4"
  type: "Pooling"
  bottom: "conv4_3"
  top: "pool4"
  pooling_param {
    pool: MAX
    kernel_size: 2
    stride: 2
  }
}
layer {
  name: "conv5_1"
  type: "Convolution"
  bottom: "pool4"
  top: "conv5_1"
  param {
    lr_mult: 1
    decay_mult: 1
  }
  param {
    lr_mult: 1
    decay_mult: 0
  }
  convolution_param {
    num_output: 512
    pad: 1
    kernel_size: 3
    engine: CAFFE
  }
}
layer {
  name: "relu5_1"
  type: "ReLU"
  bottom: "conv5_1"
  top: "conv5_1"
}
layer {
  name: "conv5_2"
  type: "Convolution"
  bottom: "conv5_1"
  top: "conv5_2"
  param {
    lr_mult: 1
    decay_mult: 1
  }
  param {
    lr_mult: 1
    decay_mult: 0
  }
  convolution_param {
    num_output: 512
    pad: 1
    kernel_size: 3
    engine: CAFFE
  }
}
layer {
  name: "relu5_2"
  type: "ReLU"
  bottom: "conv5_2"
  top: "conv5_2"
}
layer {
  name: "conv5_3"
  type: "Convolution"
  bottom: "conv5_2"
  top: "conv5_3"
  param {
    lr_mult: 1
    decay_mult: 1
  }
  param {
    lr_mult: 1
    decay_mult: 0
  }
  convolution_param {
    num_output: 512
    pad: 1
    kernel_size: 3
    engine: CAFFE
  }
}
layer {
  name: "relu5_3"
  type: "ReLU"
  bottom: "conv5_3"
  top: "conv5_3"
}
layer {
  name: "pool5"
  type: "Pooling"
  bottom: "conv5_3"
  top: "pool5"
  pooling_param {
    pool: MAX
    kernel_size: 2
    stride: 2
  }
}
layer {
  name: "fc6"
  type: "Convolution"
  bottom: "pool5"
  top: "fc6"
  param {
    lr_mult: 1
    decay_mult: 1
  }
  param {
    lr_mult: 2
    decay_mult: 0
  }
  convolution_param {
    num_output: 4096
    kernel_size: 7
    engine: CAFFE
  }
}
layer {
  name: "relu6"
  type: "ReLU"
  bottom: "fc6"
  top: "fc6"
}
layer {
  name: "drop6"
  type: "Dropout"
  bottom: "fc6"
  top: "fc6"
  dropout_param {
    dropout_ratio: 0.5
  }
}
layer {
  name: "fc7"
  type: "Convolution"
  bottom: "fc6"
  top: "fc7"
  param {
    lr_mult: 1
    decay_mult: 1
  }
  param {
    lr_mult: 2
    decay_mult: 0
  }
  convolution_param {
    num_output: 4096
    kernel_size: 1
    engine: CAFFE
  }
}
layer {
  name: "relu7"
  type: "ReLU"
  bottom: "fc7"
  top: "fc7"
}
layer {
  name: "drop7"
  type: "Dropout"
  bottom: "fc7"
  top: "fc7"
  dropout_param {
    dropout_ratio: 0.5
  }
}
layer {
  name: "conv8"
  type: "Convolution"
  bottom: "fc7"
  top: "score"
  param {
    lr_mult: 1
    decay_mult: 1
  }
  param {
    lr_mult: 2
    decay_mult: 0
  }
  convolution_param {
    num_output: 1
    kernel_size: 1
    weight_filler {
      type: "gaussian"
      std: 0.01
    }
    bias_filler {
      type: "constant"
      value: 0
    }
    engine: CAFFE
  }
}
layer {
  name: "deconv"
  type: "Deconvolution"
  bottom: "score"
  top: "bigmap"
  param {
    lr_mult: 1
    decay_mult: 1
  }
  param {
    lr_mult: 2
    decay_mult: 0
  }
  convolution_param {
    num_output: 1
    kernel_size: 64
    stride: 32
    weight_filler {
      type: "gaussian"
      std: 0.01
    }
    bias_filler {
      type: "constant"
      value: 0
    }
  }
}
layer {
  name: "crop_finetune"
  type: "Crop"
  bottom: "bigmap"
  bottom: "data"
  top: "map"
}
layer {
  name: "sigmoid"
  type: "Sigmoid"
  bottom: "map"
  top: "outmap"
}
layer {
  name: "loss"
  type: "EuclideanLoss"
  bottom: "outmap"
  bottom: "inputmap"
  top: "loss"
}
I0426 19:21:33.401072  3281 layer_factory.hpp:74] Creating layer data
I0426 19:21:33.401103  3281 net.cpp:85] Creating Layer data
I0426 19:21:33.401120  3281 net.cpp:339] data -> data
I0426 19:21:33.401149  3281 net.cpp:339] data -> inputmap
I0426 19:21:33.401167  3281 net.cpp:114] Setting up data
I0426 19:21:33.401181  3281 hdf5_data_layer.cpp:66] Loading list of HDF5 filenames from: ./train_list.txt
I0426 19:21:33.401258  3281 hdf5_data_layer.cpp:80] Number of HDF5 files: 5
I0426 19:21:37.657433  3281 net.cpp:121] Top shape: 6 3 500 500 (4500000)
I0426 19:21:37.657505  3281 net.cpp:121] Top shape: 6 1 500 500 (1500000)
I0426 19:21:37.657532  3281 layer_factory.hpp:74] Creating layer data_data_0_split
I0426 19:21:37.657568  3281 net.cpp:85] Creating Layer data_data_0_split
I0426 19:21:37.657579  3281 net.cpp:381] data_data_0_split <- data
I0426 19:21:37.657603  3281 net.cpp:339] data_data_0_split -> data_data_0_split_0
I0426 19:21:37.657624  3281 net.cpp:339] data_data_0_split -> data_data_0_split_1
I0426 19:21:37.657635  3281 net.cpp:114] Setting up data_data_0_split
I0426 19:21:37.657652  3281 net.cpp:121] Top shape: 6 3 500 500 (4500000)
I0426 19:21:37.657661  3281 net.cpp:121] Top shape: 6 3 500 500 (4500000)
I0426 19:21:37.657670  3281 layer_factory.hpp:74] Creating layer conv1_1
I0426 19:21:37.657691  3281 net.cpp:85] Creating Layer conv1_1
I0426 19:21:37.657698  3281 net.cpp:381] conv1_1 <- data_data_0_split_0
I0426 19:21:37.657709  3281 net.cpp:339] conv1_1 -> conv1_1
I0426 19:21:37.657723  3281 net.cpp:114] Setting up conv1_1
I0426 19:21:37.659327  3281 net.cpp:121] Top shape: 6 64 698 698 (187086336)
I0426 19:21:37.659370  3281 layer_factory.hpp:74] Creating layer relu1_1
I0426 19:21:37.659389  3281 net.cpp:85] Creating Layer relu1_1
I0426 19:21:37.659397  3281 net.cpp:381] relu1_1 <- conv1_1
I0426 19:21:37.659409  3281 net.cpp:328] relu1_1 -> conv1_1 (in-place)
I0426 19:21:37.659418  3281 net.cpp:114] Setting up relu1_1
I0426 19:21:37.659432  3281 net.cpp:121] Top shape: 6 64 698 698 (187086336)
I0426 19:21:37.659441  3281 layer_factory.hpp:74] Creating layer conv1_2
I0426 19:21:37.659454  3281 net.cpp:85] Creating Layer conv1_2
I0426 19:21:37.659462  3281 net.cpp:381] conv1_2 <- conv1_1
I0426 19:21:37.659471  3281 net.cpp:339] conv1_2 -> conv1_2
I0426 19:21:37.659482  3281 net.cpp:114] Setting up conv1_2
I0426 19:21:37.661074  3281 net.cpp:121] Top shape: 6 64 698 698 (187086336)
I0426 19:21:37.661105  3281 layer_factory.hpp:74] Creating layer relu1_2
I0426 19:21:37.661123  3281 net.cpp:85] Creating Layer relu1_2
I0426 19:21:37.661137  3281 net.cpp:381] relu1_2 <- conv1_2
I0426 19:21:37.661154  3281 net.cpp:328] relu1_2 -> conv1_2 (in-place)
I0426 19:21:37.661171  3281 net.cpp:114] Setting up relu1_2
I0426 19:21:37.661193  3281 net.cpp:121] Top shape: 6 64 698 698 (187086336)
I0426 19:21:37.661206  3281 layer_factory.hpp:74] Creating layer pool1
I0426 19:21:37.661226  3281 net.cpp:85] Creating Layer pool1
I0426 19:21:37.661247  3281 net.cpp:381] pool1 <- conv1_2
I0426 19:21:37.661257  3281 net.cpp:339] pool1 -> pool1
I0426 19:21:37.661268  3281 net.cpp:114] Setting up pool1
I0426 19:21:37.661303  3281 net.cpp:121] Top shape: 6 64 349 349 (46771584)
I0426 19:21:37.661315  3281 layer_factory.hpp:74] Creating layer conv2_1
I0426 19:21:37.661326  3281 net.cpp:85] Creating Layer conv2_1
I0426 19:21:37.661336  3281 net.cpp:381] conv2_1 <- pool1
I0426 19:21:37.661348  3281 net.cpp:339] conv2_1 -> conv2_1
I0426 19:21:37.661360  3281 net.cpp:114] Setting up conv2_1
I0426 19:21:37.661744  3281 net.cpp:121] Top shape: 6 128 349 349 (93543168)
I0426 19:21:37.661769  3281 layer_factory.hpp:74] Creating layer relu2_1
I0426 19:21:37.661785  3281 net.cpp:85] Creating Layer relu2_1
I0426 19:21:37.661811  3281 net.cpp:381] relu2_1 <- conv2_1
I0426 19:21:37.661834  3281 net.cpp:328] relu2_1 -> conv2_1 (in-place)
I0426 19:21:37.661844  3281 net.cpp:114] Setting up relu2_1
I0426 19:21:37.661854  3281 net.cpp:121] Top shape: 6 128 349 349 (93543168)
I0426 19:21:37.661862  3281 layer_factory.hpp:74] Creating layer conv2_2
I0426 19:21:37.661875  3281 net.cpp:85] Creating Layer conv2_2
I0426 19:21:37.661882  3281 net.cpp:381] conv2_2 <- conv2_1
I0426 19:21:37.661892  3281 net.cpp:339] conv2_2 -> conv2_2
I0426 19:21:37.661905  3281 net.cpp:114] Setting up conv2_2
I0426 19:21:37.662566  3281 net.cpp:121] Top shape: 6 128 349 349 (93543168)
I0426 19:21:37.662590  3281 layer_factory.hpp:74] Creating layer relu2_2
I0426 19:21:37.662603  3281 net.cpp:85] Creating Layer relu2_2
I0426 19:21:37.662611  3281 net.cpp:381] relu2_2 <- conv2_2
I0426 19:21:37.662621  3281 net.cpp:328] relu2_2 -> conv2_2 (in-place)
I0426 19:21:37.662631  3281 net.cpp:114] Setting up relu2_2
I0426 19:21:37.662642  3281 net.cpp:121] Top shape: 6 128 349 349 (93543168)
I0426 19:21:37.662649  3281 layer_factory.hpp:74] Creating layer pool2
I0426 19:21:37.662660  3281 net.cpp:85] Creating Layer pool2
I0426 19:21:37.662667  3281 net.cpp:381] pool2 <- conv2_2
I0426 19:21:37.662677  3281 net.cpp:339] pool2 -> pool2
I0426 19:21:37.662686  3281 net.cpp:114] Setting up pool2
I0426 19:21:37.662699  3281 net.cpp:121] Top shape: 6 128 175 175 (23520000)
I0426 19:21:37.662708  3281 layer_factory.hpp:74] Creating layer conv3_1
I0426 19:21:37.662719  3281 net.cpp:85] Creating Layer conv3_1
I0426 19:21:37.662726  3281 net.cpp:381] conv3_1 <- pool2
I0426 19:21:37.662736  3281 net.cpp:339] conv3_1 -> conv3_1
I0426 19:21:37.662747  3281 net.cpp:114] Setting up conv3_1
I0426 19:21:37.663530  3281 net.cpp:121] Top shape: 6 256 175 175 (47040000)
I0426 19:21:37.663558  3281 layer_factory.hpp:74] Creating layer relu3_1
I0426 19:21:37.663573  3281 net.cpp:85] Creating Layer relu3_1
I0426 19:21:37.663581  3281 net.cpp:381] relu3_1 <- conv3_1
I0426 19:21:37.663591  3281 net.cpp:328] relu3_1 -> conv3_1 (in-place)
I0426 19:21:37.663601  3281 net.cpp:114] Setting up relu3_1
I0426 19:21:37.663611  3281 net.cpp:121] Top shape: 6 256 175 175 (47040000)
I0426 19:21:37.663619  3281 layer_factory.hpp:74] Creating layer conv3_2
I0426 19:21:37.663630  3281 net.cpp:85] Creating Layer conv3_2
I0426 19:21:37.663636  3281 net.cpp:381] conv3_2 <- conv3_1
I0426 19:21:37.663647  3281 net.cpp:339] conv3_2 -> conv3_2
I0426 19:21:37.663657  3281 net.cpp:114] Setting up conv3_2
I0426 19:21:37.665611  3281 net.cpp:121] Top shape: 6 256 175 175 (47040000)
I0426 19:21:37.665639  3281 layer_factory.hpp:74] Creating layer relu3_2
I0426 19:21:37.665654  3281 net.cpp:85] Creating Layer relu3_2
I0426 19:21:37.665663  3281 net.cpp:381] relu3_2 <- conv3_2
I0426 19:21:37.665673  3281 net.cpp:328] relu3_2 -> conv3_2 (in-place)
I0426 19:21:37.665683  3281 net.cpp:114] Setting up relu3_2
I0426 19:21:37.665693  3281 net.cpp:121] Top shape: 6 256 175 175 (47040000)
I0426 19:21:37.665701  3281 layer_factory.hpp:74] Creating layer conv3_3
I0426 19:21:37.665719  3281 net.cpp:85] Creating Layer conv3_3
I0426 19:21:37.665729  3281 net.cpp:381] conv3_3 <- conv3_2
I0426 19:21:37.665740  3281 net.cpp:339] conv3_3 -> conv3_3
I0426 19:21:37.665750  3281 net.cpp:114] Setting up conv3_3
I0426 19:21:37.667701  3281 net.cpp:121] Top shape: 6 256 175 175 (47040000)
I0426 19:21:37.667732  3281 layer_factory.hpp:74] Creating layer relu3_3
I0426 19:21:37.667747  3281 net.cpp:85] Creating Layer relu3_3
I0426 19:21:37.667755  3281 net.cpp:381] relu3_3 <- conv3_3
I0426 19:21:37.667765  3281 net.cpp:328] relu3_3 -> conv3_3 (in-place)
I0426 19:21:37.667776  3281 net.cpp:114] Setting up relu3_3
I0426 19:21:37.667785  3281 net.cpp:121] Top shape: 6 256 175 175 (47040000)
I0426 19:21:37.667793  3281 layer_factory.hpp:74] Creating layer pool3
I0426 19:21:37.667805  3281 net.cpp:85] Creating Layer pool3
I0426 19:21:37.667814  3281 net.cpp:381] pool3 <- conv3_3
I0426 19:21:37.667824  3281 net.cpp:339] pool3 -> pool3
I0426 19:21:37.667858  3281 net.cpp:114] Setting up pool3
I0426 19:21:37.667876  3281 net.cpp:121] Top shape: 6 256 88 88 (11894784)
I0426 19:21:37.667896  3281 layer_factory.hpp:74] Creating layer conv4_1
I0426 19:21:37.667911  3281 net.cpp:85] Creating Layer conv4_1
I0426 19:21:37.667918  3281 net.cpp:381] conv4_1 <- pool3
I0426 19:21:37.667928  3281 net.cpp:339] conv4_1 -> conv4_1
I0426 19:21:37.667939  3281 net.cpp:114] Setting up conv4_1
I0426 19:21:37.671722  3281 net.cpp:121] Top shape: 6 512 88 88 (23789568)
I0426 19:21:37.671778  3281 layer_factory.hpp:74] Creating layer relu4_1
I0426 19:21:37.671794  3281 net.cpp:85] Creating Layer relu4_1
I0426 19:21:37.671802  3281 net.cpp:381] relu4_1 <- conv4_1
I0426 19:21:37.671814  3281 net.cpp:328] relu4_1 -> conv4_1 (in-place)
I0426 19:21:37.671824  3281 net.cpp:114] Setting up relu4_1
I0426 19:21:37.671835  3281 net.cpp:121] Top shape: 6 512 88 88 (23789568)
I0426 19:21:37.671843  3281 layer_factory.hpp:74] Creating layer conv4_2
I0426 19:21:37.671857  3281 net.cpp:85] Creating Layer conv4_2
I0426 19:21:37.671865  3281 net.cpp:381] conv4_2 <- conv4_1
I0426 19:21:37.671876  3281 net.cpp:339] conv4_2 -> conv4_2
I0426 19:21:37.671887  3281 net.cpp:114] Setting up conv4_2
I0426 19:21:37.679286  3281 net.cpp:121] Top shape: 6 512 88 88 (23789568)
I0426 19:21:37.679355  3281 layer_factory.hpp:74] Creating layer relu4_2
I0426 19:21:37.679375  3281 net.cpp:85] Creating Layer relu4_2
I0426 19:21:37.679384  3281 net.cpp:381] relu4_2 <- conv4_2
I0426 19:21:37.679395  3281 net.cpp:328] relu4_2 -> conv4_2 (in-place)
I0426 19:21:37.679407  3281 net.cpp:114] Setting up relu4_2
I0426 19:21:37.679417  3281 net.cpp:121] Top shape: 6 512 88 88 (23789568)
I0426 19:21:37.679425  3281 layer_factory.hpp:74] Creating layer conv4_3
I0426 19:21:37.679438  3281 net.cpp:85] Creating Layer conv4_3
I0426 19:21:37.679446  3281 net.cpp:381] conv4_3 <- conv4_2
I0426 19:21:37.679455  3281 net.cpp:339] conv4_3 -> conv4_3
I0426 19:21:37.679468  3281 net.cpp:114] Setting up conv4_3
I0426 19:21:37.690349  3281 net.cpp:121] Top shape: 6 512 88 88 (23789568)
I0426 19:21:37.690381  3281 layer_factory.hpp:74] Creating layer relu4_3
I0426 19:21:37.690394  3281 net.cpp:85] Creating Layer relu4_3
I0426 19:21:37.690402  3281 net.cpp:381] relu4_3 <- conv4_3
I0426 19:21:37.690412  3281 net.cpp:328] relu4_3 -> conv4_3 (in-place)
I0426 19:21:37.690421  3281 net.cpp:114] Setting up relu4_3
I0426 19:21:37.690431  3281 net.cpp:121] Top shape: 6 512 88 88 (23789568)
I0426 19:21:37.690438  3281 layer_factory.hpp:74] Creating layer pool4
I0426 19:21:37.690455  3281 net.cpp:85] Creating Layer pool4
I0426 19:21:37.690465  3281 net.cpp:381] pool4 <- conv4_3
I0426 19:21:37.690475  3281 net.cpp:339] pool4 -> pool4
I0426 19:21:37.690487  3281 net.cpp:114] Setting up pool4
I0426 19:21:37.690501  3281 net.cpp:121] Top shape: 6 512 44 44 (5947392)
I0426 19:21:37.690517  3281 layer_factory.hpp:74] Creating layer conv5_1
I0426 19:21:37.690543  3281 net.cpp:85] Creating Layer conv5_1
I0426 19:21:37.690554  3281 net.cpp:381] conv5_1 <- pool4
I0426 19:21:37.690565  3281 net.cpp:339] conv5_1 -> conv5_1
I0426 19:21:37.690577  3281 net.cpp:114] Setting up conv5_1
I0426 19:21:37.697993  3281 net.cpp:121] Top shape: 6 512 44 44 (5947392)
I0426 19:21:37.698048  3281 layer_factory.hpp:74] Creating layer relu5_1
I0426 19:21:37.698067  3281 net.cpp:85] Creating Layer relu5_1
I0426 19:21:37.698076  3281 net.cpp:381] relu5_1 <- conv5_1
I0426 19:21:37.698086  3281 net.cpp:328] relu5_1 -> conv5_1 (in-place)
I0426 19:21:37.698096  3281 net.cpp:114] Setting up relu5_1
I0426 19:21:37.698107  3281 net.cpp:121] Top shape: 6 512 44 44 (5947392)
I0426 19:21:37.698113  3281 layer_factory.hpp:74] Creating layer conv5_2
I0426 19:21:37.698132  3281 net.cpp:85] Creating Layer conv5_2
I0426 19:21:37.698139  3281 net.cpp:381] conv5_2 <- conv5_1
I0426 19:21:37.698150  3281 net.cpp:339] conv5_2 -> conv5_2
I0426 19:21:37.698161  3281 net.cpp:114] Setting up conv5_2
I0426 19:21:37.705580  3281 net.cpp:121] Top shape: 6 512 44 44 (5947392)
I0426 19:21:37.705657  3281 layer_factory.hpp:74] Creating layer relu5_2
I0426 19:21:37.705693  3281 net.cpp:85] Creating Layer relu5_2
I0426 19:21:37.705715  3281 net.cpp:381] relu5_2 <- conv5_2
I0426 19:21:37.705730  3281 net.cpp:328] relu5_2 -> conv5_2 (in-place)
I0426 19:21:37.705745  3281 net.cpp:114] Setting up relu5_2
I0426 19:21:37.705756  3281 net.cpp:121] Top shape: 6 512 44 44 (5947392)
I0426 19:21:37.705765  3281 layer_factory.hpp:74] Creating layer conv5_3
I0426 19:21:37.705776  3281 net.cpp:85] Creating Layer conv5_3
I0426 19:21:37.705788  3281 net.cpp:381] conv5_3 <- conv5_2
I0426 19:21:37.705798  3281 net.cpp:339] conv5_3 -> conv5_3
I0426 19:21:37.705809  3281 net.cpp:114] Setting up conv5_3
I0426 19:21:37.713299  3281 net.cpp:121] Top shape: 6 512 44 44 (5947392)
I0426 19:21:37.713358  3281 layer_factory.hpp:74] Creating layer relu5_3
I0426 19:21:37.713384  3281 net.cpp:85] Creating Layer relu5_3
I0426 19:21:37.713393  3281 net.cpp:381] relu5_3 <- conv5_3
I0426 19:21:37.713404  3281 net.cpp:328] relu5_3 -> conv5_3 (in-place)
I0426 19:21:37.713417  3281 net.cpp:114] Setting up relu5_3
I0426 19:21:37.713426  3281 net.cpp:121] Top shape: 6 512 44 44 (5947392)
I0426 19:21:37.713433  3281 layer_factory.hpp:74] Creating layer pool5
I0426 19:21:37.713454  3281 net.cpp:85] Creating Layer pool5
I0426 19:21:37.713466  3281 net.cpp:381] pool5 <- conv5_3
I0426 19:21:37.713475  3281 net.cpp:339] pool5 -> pool5
I0426 19:21:37.713488  3281 net.cpp:114] Setting up pool5
I0426 19:21:37.713502  3281 net.cpp:121] Top shape: 6 512 22 22 (1486848)
I0426 19:21:37.713515  3281 layer_factory.hpp:74] Creating layer fc6
I0426 19:21:37.713537  3281 net.cpp:85] Creating Layer fc6
I0426 19:21:37.713549  3281 net.cpp:381] fc6 <- pool5
I0426 19:21:37.713560  3281 net.cpp:339] fc6 -> fc6
I0426 19:21:37.713579  3281 net.cpp:114] Setting up fc6
I0426 19:21:38.053407  3281 net.cpp:121] Top shape: 6 4096 16 16 (6291456)
I0426 19:21:38.053488  3281 layer_factory.hpp:74] Creating layer relu6
I0426 19:21:38.053510  3281 net.cpp:85] Creating Layer relu6
I0426 19:21:38.053519  3281 net.cpp:381] relu6 <- fc6
I0426 19:21:38.053551  3281 net.cpp:328] relu6 -> fc6 (in-place)
I0426 19:21:38.053565  3281 net.cpp:114] Setting up relu6
I0426 19:21:38.053576  3281 net.cpp:121] Top shape: 6 4096 16 16 (6291456)
I0426 19:21:38.053583  3281 layer_factory.hpp:74] Creating layer drop6
I0426 19:21:38.053599  3281 net.cpp:85] Creating Layer drop6
I0426 19:21:38.053607  3281 net.cpp:381] drop6 <- fc6
I0426 19:21:38.053617  3281 net.cpp:328] drop6 -> fc6 (in-place)
I0426 19:21:38.053627  3281 net.cpp:114] Setting up drop6
I0426 19:21:38.053644  3281 net.cpp:121] Top shape: 6 4096 16 16 (6291456)
I0426 19:21:38.053653  3281 layer_factory.hpp:74] Creating layer fc7
I0426 19:21:38.053664  3281 net.cpp:85] Creating Layer fc7
I0426 19:21:38.053671  3281 net.cpp:381] fc7 <- fc6
I0426 19:21:38.053680  3281 net.cpp:339] fc7 -> fc7
I0426 19:21:38.053691  3281 net.cpp:114] Setting up fc7
I0426 19:21:38.110432  3281 net.cpp:121] Top shape: 6 4096 16 16 (6291456)
I0426 19:21:38.110502  3281 layer_factory.hpp:74] Creating layer relu7
I0426 19:21:38.110534  3281 net.cpp:85] Creating Layer relu7
I0426 19:21:38.110558  3281 net.cpp:381] relu7 <- fc7
I0426 19:21:38.110587  3281 net.cpp:328] relu7 -> fc7 (in-place)
I0426 19:21:38.110615  3281 net.cpp:114] Setting up relu7
I0426 19:21:38.110641  3281 net.cpp:121] Top shape: 6 4096 16 16 (6291456)
I0426 19:21:38.110656  3281 layer_factory.hpp:74] Creating layer drop7
I0426 19:21:38.110671  3281 net.cpp:85] Creating Layer drop7
I0426 19:21:38.110683  3281 net.cpp:381] drop7 <- fc7
I0426 19:21:38.110693  3281 net.cpp:328] drop7 -> fc7 (in-place)
I0426 19:21:38.110703  3281 net.cpp:114] Setting up drop7
I0426 19:21:38.110726  3281 net.cpp:121] Top shape: 6 4096 16 16 (6291456)
I0426 19:21:38.110735  3281 layer_factory.hpp:74] Creating layer conv8
I0426 19:21:38.110752  3281 net.cpp:85] Creating Layer conv8
I0426 19:21:38.110761  3281 net.cpp:381] conv8 <- fc7
I0426 19:21:38.110772  3281 net.cpp:339] conv8 -> score
I0426 19:21:38.110785  3281 net.cpp:114] Setting up conv8
I0426 19:21:38.111585  3281 net.cpp:121] Top shape: 6 1 16 16 (1536)
I0426 19:21:38.111623  3281 layer_factory.hpp:74] Creating layer deconv
I0426 19:21:38.111636  3281 net.cpp:85] Creating Layer deconv
I0426 19:21:38.111644  3281 net.cpp:381] deconv <- score
I0426 19:21:38.111670  3281 net.cpp:339] deconv -> bigmap
I0426 19:21:38.111690  3281 net.cpp:114] Setting up deconv
I0426 19:21:38.112570  3281 net.cpp:121] Top shape: 6 1 544 544 (1775616)
I0426 19:21:38.112602  3281 layer_factory.hpp:74] Creating layer crop_finetune
I0426 19:21:38.112618  3281 net.cpp:85] Creating Layer crop_finetune
I0426 19:21:38.112625  3281 net.cpp:381] crop_finetune <- bigmap
I0426 19:21:38.112635  3281 net.cpp:381] crop_finetune <- data_data_0_split_1
I0426 19:21:38.112645  3281 net.cpp:339] crop_finetune -> map
I0426 19:21:38.112656  3281 net.cpp:114] Setting up crop_finetune
I0426 19:21:38.112738  3281 net.cpp:121] Top shape: 6 1 500 500 (1500000)
I0426 19:21:38.112751  3281 layer_factory.hpp:74] Creating layer sigmoid
I0426 19:21:38.112764  3281 net.cpp:85] Creating Layer sigmoid
I0426 19:21:38.112779  3281 net.cpp:381] sigmoid <- map
I0426 19:21:38.112789  3281 net.cpp:339] sigmoid -> outmap
I0426 19:21:38.112799  3281 net.cpp:114] Setting up sigmoid
I0426 19:21:38.112818  3281 net.cpp:121] Top shape: 6 1 500 500 (1500000)
I0426 19:21:38.112824  3281 layer_factory.hpp:74] Creating layer loss
I0426 19:21:38.112838  3281 net.cpp:85] Creating Layer loss
I0426 19:21:38.112846  3281 net.cpp:381] loss <- outmap
I0426 19:21:38.112855  3281 net.cpp:381] loss <- inputmap
I0426 19:21:38.112865  3281 net.cpp:339] loss -> loss
I0426 19:21:38.112879  3281 net.cpp:114] Setting up loss
I0426 19:21:38.112897  3281 net.cpp:121] Top shape: (1)
…
E0430 06:02:11.365011  3582 upgrade_proto.cpp:620] Attempting to upgrade input file specified using deprecated V1LayerParameter: train_val.prototxt
I0430 06:02:11.365684  3582 upgrade_proto.cpp:628] Successfully upgraded file specified using deprecated V1LayerParameter
I0430 06:02:11.365828  3582 net.cpp:258] The NetState phase (0) differed from the phase (1) specified by a rule in layer data
I0430 06:02:11.366195  3582 net.cpp:42] Initializing net from parameters: 
name: "FCN"
state {
  phase: TRAIN
}
layer {
  name: "data"
  type: "HDF5Data"
  top: "data"
  top: "inputmap"
  include {
    phase: TRAIN
  }
  hdf5_data_param {
    source: "./train_list.txt"
    batch_size: 4
  }
}
layer {
  name: "conv1_1"
  type: "Convolution"
  bottom: "data"
  top: "conv1_1"
  param {
    lr_mult: 1
    decay_mult: 1
  }
  param {
    lr_mult: 1
    decay_mult: 0
  }
  convolution_param {
    num_output: 64
    pad: 100
    kernel_size: 3
    engine: CAFFE
  }
}
layer {
  name: "relu1_1"
  type: "ReLU"
  bottom: "conv1_1"
  top: "conv1_1"
}
layer {
  name: "conv1_2"
  type: "Convolution"
  bottom: "conv1_1"
  top: "conv1_2"
  param {
    lr_mult: 1
    decay_mult: 1
  }
  param {
    lr_mult: 1
    decay_mult: 0
  }
  convolution_param {
    num_output: 64
    pad: 1
    kernel_size: 3
    engine: CAFFE
  }
}
layer {
  name: "relu1_2"
  type: "ReLU"
  bottom: "conv1_2"
  top: "conv1_2"
}
layer {
  name: "pool1"
  type: "Pooling"
  bottom: "conv1_2"
  top: "pool1"
  pooling_param {
    pool: MAX
    kernel_size: 2
    stride: 2
  }
}
layer {
  name: "conv2_1"
  type: "Convolution"
  bottom: "pool1"
  top: "conv2_1"
  param {
    lr_mult: 1
    decay_mult: 1
  }
  param {
    lr_mult: 1
    decay_mult: 0
  }
  convolution_param {
    num_output: 128
    pad: 1
    kernel_size: 3
    engine: CAFFE
  }
}
layer {
  name: "relu2_1"
  type: "ReLU"
  bottom: "conv2_1"
  top: "conv2_1"
}
layer {
  name: "conv2_2"
  type: "Convolution"
  bottom: "conv2_1"
  top: "conv2_2"
  param {
    lr_mult: 1
    decay_mult: 1
  }
  param {
    lr_mult: 1
    decay_mult: 0
  }
  convolution_param {
    num_output: 128
    pad: 1
    kernel_size: 3
    engine: CAFFE
  }
}
layer {
  name: "relu2_2"
  type: "ReLU"
  bottom: "conv2_2"
  top: "conv2_2"
}
layer {
  name: "pool2"
  type: "Pooling"
  bottom: "conv2_2"
  top: "pool2"
  pooling_param {
    pool: MAX
    kernel_size: 2
    stride: 2
  }
}
layer {
  name: "conv3_1"
  type: "Convolution"
  bottom: "pool2"
  top: "conv3_1"
  param {
    lr_mult: 1
    decay_mult: 1
  }
  param {
    lr_mult: 1
    decay_mult: 0
  }
  convolution_param {
    num_output: 256
    pad: 1
    kernel_size: 3
    engine: CAFFE
  }
}
layer {
  name: "relu3_1"
  type: "ReLU"
  bottom: "conv3_1"
  top: "conv3_1"
}
layer {
  name: "conv3_2"
  type: "Convolution"
  bottom: "conv3_1"
  top: "conv3_2"
  param {
    lr_mult: 1
    decay_mult: 1
  }
  param {
    lr_mult: 1
    decay_mult: 0
  }
  convolution_param {
    num_output: 256
    pad: 1
    kernel_size: 3
    engine: CAFFE
  }
}
layer {
  name: "relu3_2"
  type: "ReLU"
  bottom: "conv3_2"
  top: "conv3_2"
}
layer {
  name: "conv3_3"
  type: "Convolution"
  bottom: "conv3_2"
  top: "conv3_3"
  param {
    lr_mult: 1
    decay_mult: 1
  }
  param {
    lr_mult: 1
    decay_mult: 0
  }
  convolution_param {
    num_output: 256
    pad: 1
    kernel_size: 3
    engine: CAFFE
  }
}
layer {
  name: "relu3_3"
  type: "ReLU"
  bottom: "conv3_3"
  top: "conv3_3"
}
layer {
  name: "pool3"
  type: "Pooling"
  bottom: "conv3_3"
  top: "pool3"
  pooling_param {
    pool: MAX
    kernel_size: 2
    stride: 2
  }
}
layer {
  name: "conv4_1"
  type: "Convolution"
  bottom: "pool3"
  top: "conv4_1"
  param {
    lr_mult: 1
    decay_mult: 1
  }
  param {
    lr_mult: 1
    decay_mult: 0
  }
  convolution_param {
    num_output: 512
    pad: 1
    kernel_size: 3
    engine: CAFFE
  }
}
layer {
  name: "relu4_1"
  type: "ReLU"
  bottom: "conv4_1"
  top: "conv4_1"
}
layer {
  name: "conv4_2"
  type: "Convolution"
  bottom: "conv4_1"
  top: "conv4_2"
  param {
    lr_mult: 1
    decay_mult: 1
  }
  param {
    lr_mult: 1
    decay_mult: 0
  }
  convolution_param {
    num_output: 512
    pad: 1
    kernel_size: 3
    engine: CAFFE
  }
}
layer {
  name: "relu4_2"
  type: "ReLU"
  bottom: "conv4_2"
  top: "conv4_2"
}
layer {
  name: "conv4_3"
  type: "Convolution"
  bottom: "conv4_2"
  top: "conv4_3"
  param {
    lr_mult: 1
    decay_mult: 1
  }
  param {
    lr_mult: 1
    decay_mult: 0
  }
  convolution_param {
    num_output: 512
    pad: 1
    kernel_size: 3
    engine: CAFFE
  }
}
layer {
  name: "relu4_3"
  type: "ReLU"
  bottom: "conv4_3"
  top: "conv4_3"
}
layer {
  name: "pool4"
  type: "Pooling"
  bottom: "conv4_3"
  top: "pool4"
  pooling_param {
    pool: MAX
    kernel_size: 2
    stride: 2
  }
}
layer {
  name: "conv5_1"
  type: "Convolution"
  bottom: "pool4"
  top: "conv5_1"
  param {
    lr_mult: 1
    decay_mult: 1
  }
  param {
    lr_mult: 1
    decay_mult: 0
  }
  convolution_param {
    num_output: 512
    pad: 1
    kernel_size: 3
    engine: CAFFE
  }
}
layer {
  name: "relu5_1"
  type: "ReLU"
  bottom: "conv5_1"
  top: "conv5_1"
}
layer {
  name: "conv5_2"
  type: "Convolution"
  bottom: "conv5_1"
  top: "conv5_2"
  param {
    lr_mult: 1
    decay_mult: 1
  }
  param {
    lr_mult: 1
    decay_mult: 0
  }
  convolution_param {
    num_output: 512
    pad: 1
    kernel_size: 3
    engine: CAFFE
  }
}
layer {
  name: "relu5_2"
  type: "ReLU"
  bottom: "conv5_2"
  top: "conv5_2"
}
layer {
  name: "conv5_3"
  type: "Convolution"
  bottom: "conv5_2"
  top: "conv5_3"
  param {
    lr_mult: 1
    decay_mult: 1
  }
  param {
    lr_mult: 1
    decay_mult: 0
  }
  convolution_param {
    num_output: 512
    pad: 1
    kernel_size: 3
    engine: CAFFE
  }
}
layer {
  name: "relu5_3"
  type: "ReLU"
  bottom: "conv5_3"
  top: "conv5_3"
}
layer {
  name: "pool5"
  type: "Pooling"
  bottom: "conv5_3"
  top: "pool5"
  pooling_param {
    pool: MAX
    kernel_size: 2
    stride: 2
  }
}
layer {
  name: "fc6"
  type: "Convolution"
  bottom: "pool5"
  top: "fc6"
  param {
    lr_mult: 1
    decay_mult: 1
  }
  param {
    lr_mult: 2
    decay_mult: 0
  }
  convolution_param {
    num_output: 4096
    kernel_size: 7
    engine: CAFFE
  }
}
layer {
  name: "relu6"
  type: "ReLU"
  bottom: "fc6"
  top: "fc6"
}
layer {
  name: "drop6"
  type: "Dropout"
  bottom: "fc6"
  top: "fc6"
  dropout_param {
    dropout_ratio: 0.5
  }
}
layer {
  name: "fc7"
  type: "Convolution"
  bottom: "fc6"
  top: "fc7"
  param {
    lr_mult: 1
    decay_mult: 1
  }
  param {
    lr_mult: 2
    decay_mult: 0
  }
  convolution_param {
    num_output: 4096
    kernel_size: 1
    engine: CAFFE
  }
}
layer {
  name: "relu7"
  type: "ReLU"
  bottom: "fc7"
  top: "fc7"
}
layer {
  name: "drop7"
  type: "Dropout"
  bottom: "fc7"
  top: "fc7"
  dropout_param {
    dropout_ratio: 0.5
  }
}
layer {
  name: "conv8"
  type: "Convolution"
  bottom: "fc7"
  top: "score"
  param {
    lr_mult: 1
    decay_mult: 1
  }
  param {
    lr_mult: 2
    decay_mult: 0
  }
  convolution_param {
    num_output: 1
    kernel_size: 1
    weight_filler {
      type: "gaussian"
      std: 0.01
    }
    bias_filler {
      type: "constant"
      value: 0
    }
    engine: CAFFE
  }
}
layer {
  name: "deconv"
  type: "Deconvolution"
  bottom: "score"
  top: "bigmap"
  param {
    lr_mult: 1
    decay_mult: 1
  }
  param {
    lr_mult: 2
    decay_mult: 0
  }
  convolution_param {
    num_output: 1
    kernel_size: 64
    stride: 32
    weight_filler {
      type: "gaussian"
      std: 0.01
    }
    bias_filler {
      type: "constant"
      value: 0
    }
  }
}
layer {
  name: "crop_finetune"
  type: "Crop"
  bottom: "bigmap"
  bottom: "data"
  top: "map"
}
layer {
  name: "sigmoid"
  type: "Sigmoid"
  bottom: "map"
  top: "outmap"
}
layer {
  name: "loss"
  type: "EuclideanLoss"
  bottom: "outmap"
  bottom: "inputmap"
  top: "loss"
}
I0430 06:02:11.366487  3582 layer_factory.hpp:74] Creating layer data
I0430 06:02:11.366530  3582 net.cpp:85] Creating Layer data
I0430 06:02:11.366554  3582 net.cpp:339] data -> data
I0430 06:02:11.366592  3582 net.cpp:339] data -> inputmap
I0430 06:02:11.366686  3582 net.cpp:114] Setting up data
I0430 06:02:11.366701  3582 hdf5_data_layer.cpp:66] Loading list of HDF5 filenames from: ./train_list.txt
I0430 06:02:11.366822  3582 hdf5_data_layer.cpp:80] Number of HDF5 files: 19
I0430 06:02:15.386389  3582 net.cpp:121] Top shape: 4 3 500 500 (3000000)
I0430 06:02:15.386473  3582 net.cpp:121] Top shape: 4 1 500 500 (1000000)
I0430 06:02:15.386498  3582 layer_factory.hpp:74] Creating layer data_data_0_split
I0430 06:02:15.386543  3582 net.cpp:85] Creating Layer data_data_0_split
I0430 06:02:15.386561  3582 net.cpp:381] data_data_0_split <- data
I0430 06:02:15.386589  3582 net.cpp:339] data_data_0_split -> data_data_0_split_0
I0430 06:02:15.386611  3582 net.cpp:339] data_data_0_split -> data_data_0_split_1
I0430 06:02:15.386623  3582 net.cpp:114] Setting up data_data_0_split
I0430 06:02:15.386641  3582 net.cpp:121] Top shape: 4 3 500 500 (3000000)
I0430 06:02:15.386652  3582 net.cpp:121] Top shape: 4 3 500 500 (3000000)
I0430 06:02:15.386662  3582 layer_factory.hpp:74] Creating layer conv1_1
I0430 06:02:15.386684  3582 net.cpp:85] Creating Layer conv1_1
I0430 06:02:15.386693  3582 net.cpp:381] conv1_1 <- data_data_0_split_0
I0430 06:02:15.386705  3582 net.cpp:339] conv1_1 -> conv1_1
I0430 06:02:15.386719  3582 net.cpp:114] Setting up conv1_1
I0430 06:02:15.388993  3582 net.cpp:121] Top shape: 4 64 698 698 (124724224)
I0430 06:02:15.389029  3582 layer_factory.hpp:74] Creating layer relu1_1
I0430 06:02:15.389045  3582 net.cpp:85] Creating Layer relu1_1
I0430 06:02:15.389055  3582 net.cpp:381] relu1_1 <- conv1_1
I0430 06:02:15.389065  3582 net.cpp:328] relu1_1 -> conv1_1 (in-place)
I0430 06:02:15.389075  3582 net.cpp:114] Setting up relu1_1
I0430 06:02:15.389103  3582 net.cpp:121] Top shape: 4 64 698 698 (124724224)
I0430 06:02:15.389114  3582 layer_factory.hpp:74] Creating layer conv1_2
I0430 06:02:15.389127  3582 net.cpp:85] Creating Layer conv1_2
I0430 06:02:15.389135  3582 net.cpp:381] conv1_2 <- conv1_1
I0430 06:02:15.389147  3582 net.cpp:339] conv1_2 -> conv1_2
I0430 06:02:15.389158  3582 net.cpp:114] Setting up conv1_2
I0430 06:02:15.391413  3582 net.cpp:121] Top shape: 4 64 698 698 (124724224)
I0430 06:02:15.391443  3582 layer_factory.hpp:74] Creating layer relu1_2
I0430 06:02:15.391459  3582 net.cpp:85] Creating Layer relu1_2
I0430 06:02:15.391468  3582 net.cpp:381] relu1_2 <- conv1_2
I0430 06:02:15.391479  3582 net.cpp:328] relu1_2 -> conv1_2 (in-place)
I0430 06:02:15.391489  3582 net.cpp:114] Setting up relu1_2
I0430 06:02:15.391499  3582 net.cpp:121] Top shape: 4 64 698 698 (124724224)
I0430 06:02:15.391510  3582 layer_factory.hpp:74] Creating layer pool1
I0430 06:02:15.391530  3582 net.cpp:85] Creating Layer pool1
I0430 06:02:15.391543  3582 net.cpp:381] pool1 <- conv1_2
I0430 06:02:15.391554  3582 net.cpp:339] pool1 -> pool1
I0430 06:02:15.391566  3582 net.cpp:114] Setting up pool1
I0430 06:02:15.391602  3582 net.cpp:121] Top shape: 4 64 349 349 (31181056)
I0430 06:02:15.391613  3582 layer_factory.hpp:74] Creating layer conv2_1
I0430 06:02:15.391624  3582 net.cpp:85] Creating Layer conv2_1
I0430 06:02:15.391633  3582 net.cpp:381] conv2_1 <- pool1
I0430 06:02:15.391644  3582 net.cpp:339] conv2_1 -> conv2_1
I0430 06:02:15.391654  3582 net.cpp:114] Setting up conv2_1
I0430 06:02:15.392117  3582 net.cpp:121] Top shape: 4 128 349 349 (62362112)
I0430 06:02:15.392139  3582 layer_factory.hpp:74] Creating layer relu2_1
I0430 06:02:15.392153  3582 net.cpp:85] Creating Layer relu2_1
I0430 06:02:15.392161  3582 net.cpp:381] relu2_1 <- conv2_1
I0430 06:02:15.392231  3582 net.cpp:328] relu2_1 -> conv2_1 (in-place)
I0430 06:02:15.392242  3582 net.cpp:114] Setting up relu2_1
I0430 06:02:15.392252  3582 net.cpp:121] Top shape: 4 128 349 349 (62362112)
I0430 06:02:15.392261  3582 layer_factory.hpp:74] Creating layer conv2_2
I0430 06:02:15.392273  3582 net.cpp:85] Creating Layer conv2_2
I0430 06:02:15.392282  3582 net.cpp:381] conv2_2 <- conv2_1
I0430 06:02:15.392292  3582 net.cpp:339] conv2_2 -> conv2_2
I0430 06:02:15.392303  3582 net.cpp:114] Setting up conv2_2
I0430 06:02:15.393113  3582 net.cpp:121] Top shape: 4 128 349 349 (62362112)
I0430 06:02:15.393137  3582 layer_factory.hpp:74] Creating layer relu2_2
I0430 06:02:15.393149  3582 net.cpp:85] Creating Layer relu2_2
I0430 06:02:15.393157  3582 net.cpp:381] relu2_2 <- conv2_2
I0430 06:02:15.393167  3582 net.cpp:328] relu2_2 -> conv2_2 (in-place)
I0430 06:02:15.393177  3582 net.cpp:114] Setting up relu2_2
I0430 06:02:15.393187  3582 net.cpp:121] Top shape: 4 128 349 349 (62362112)
I0430 06:02:15.393193  3582 layer_factory.hpp:74] Creating layer pool2
I0430 06:02:15.393208  3582 net.cpp:85] Creating Layer pool2
I0430 06:02:15.393215  3582 net.cpp:381] pool2 <- conv2_2
I0430 06:02:15.393228  3582 net.cpp:339] pool2 -> pool2
I0430 06:02:15.393237  3582 net.cpp:114] Setting up pool2
I0430 06:02:15.393249  3582 net.cpp:121] Top shape: 4 128 175 175 (15680000)
I0430 06:02:15.393257  3582 layer_factory.hpp:74] Creating layer conv3_1
I0430 06:02:15.393268  3582 net.cpp:85] Creating Layer conv3_1
I0430 06:02:15.393276  3582 net.cpp:381] conv3_1 <- pool2
I0430 06:02:15.393287  3582 net.cpp:339] conv3_1 -> conv3_1
I0430 06:02:15.393297  3582 net.cpp:114] Setting up conv3_1
I0430 06:02:15.394268  3582 net.cpp:121] Top shape: 4 256 175 175 (31360000)
I0430 06:02:15.394292  3582 layer_factory.hpp:74] Creating layer relu3_1
I0430 06:02:15.394309  3582 net.cpp:85] Creating Layer relu3_1
I0430 06:02:15.394317  3582 net.cpp:381] relu3_1 <- conv3_1
I0430 06:02:15.394328  3582 net.cpp:328] relu3_1 -> conv3_1 (in-place)
I0430 06:02:15.394338  3582 net.cpp:114] Setting up relu3_1
I0430 06:02:15.394347  3582 net.cpp:121] Top shape: 4 256 175 175 (31360000)
I0430 06:02:15.394356  3582 layer_factory.hpp:74] Creating layer conv3_2
I0430 06:02:15.394386  3582 net.cpp:85] Creating Layer conv3_2
I0430 06:02:15.394397  3582 net.cpp:381] conv3_2 <- conv3_1
I0430 06:02:15.394407  3582 net.cpp:339] conv3_2 -> conv3_2
I0430 06:02:15.394418  3582 net.cpp:114] Setting up conv3_2
I0430 06:02:15.396576  3582 net.cpp:121] Top shape: 4 256 175 175 (31360000)
I0430 06:02:15.396600  3582 layer_factory.hpp:74] Creating layer relu3_2
I0430 06:02:15.396612  3582 net.cpp:85] Creating Layer relu3_2
I0430 06:02:15.396620  3582 net.cpp:381] relu3_2 <- conv3_2
I0430 06:02:15.396631  3582 net.cpp:328] relu3_2 -> conv3_2 (in-place)
I0430 06:02:15.396641  3582 net.cpp:114] Setting up relu3_2
I0430 06:02:15.396651  3582 net.cpp:121] Top shape: 4 256 175 175 (31360000)
I0430 06:02:15.396659  3582 layer_factory.hpp:74] Creating layer conv3_3
I0430 06:02:15.396675  3582 net.cpp:85] Creating Layer conv3_3
I0430 06:02:15.396692  3582 net.cpp:381] conv3_3 <- conv3_2
I0430 06:02:15.396703  3582 net.cpp:339] conv3_3 -> conv3_3
I0430 06:02:15.396715  3582 net.cpp:114] Setting up conv3_3
I0430 06:02:15.399435  3582 net.cpp:121] Top shape: 4 256 175 175 (31360000)
I0430 06:02:15.399461  3582 layer_factory.hpp:74] Creating layer relu3_3
I0430 06:02:15.399476  3582 net.cpp:85] Creating Layer relu3_3
I0430 06:02:15.399484  3582 net.cpp:381] relu3_3 <- conv3_3
I0430 06:02:15.399495  3582 net.cpp:328] relu3_3 -> conv3_3 (in-place)
I0430 06:02:15.399505  3582 net.cpp:114] Setting up relu3_3
I0430 06:02:15.399514  3582 net.cpp:121] Top shape: 4 256 175 175 (31360000)
I0430 06:02:15.399528  3582 layer_factory.hpp:74] Creating layer pool3
I0430 06:02:15.399545  3582 net.cpp:85] Creating Layer pool3
I0430 06:02:15.399554  3582 net.cpp:381] pool3 <- conv3_3
I0430 06:02:15.399565  3582 net.cpp:339] pool3 -> pool3
I0430 06:02:15.399575  3582 net.cpp:114] Setting up pool3
I0430 06:02:15.399590  3582 net.cpp:121] Top shape: 4 256 88 88 (7929856)
I0430 06:02:15.399608  3582 layer_factory.hpp:74] Creating layer conv4_1
I0430 06:02:15.399621  3582 net.cpp:85] Creating Layer conv4_1
I0430 06:02:15.399629  3582 net.cpp:381] conv4_1 <- pool3
I0430 06:02:15.399641  3582 net.cpp:339] conv4_1 -> conv4_1
I0430 06:02:15.399652  3582 net.cpp:114] Setting up conv4_1
I0430 06:02:15.404289  3582 net.cpp:121] Top shape: 4 512 88 88 (15859712)
I0430 06:02:15.404321  3582 layer_factory.hpp:74] Creating layer relu4_1
I0430 06:02:15.404335  3582 net.cpp:85] Creating Layer relu4_1
I0430 06:02:15.404343  3582 net.cpp:381] relu4_1 <- conv4_1
I0430 06:02:15.404355  3582 net.cpp:328] relu4_1 -> conv4_1 (in-place)
I0430 06:02:15.404363  3582 net.cpp:114] Setting up relu4_1
I0430 06:02:15.404373  3582 net.cpp:121] Top shape: 4 512 88 88 (15859712)
I0430 06:02:15.404381  3582 layer_factory.hpp:74] Creating layer conv4_2
I0430 06:02:15.404392  3582 net.cpp:85] Creating Layer conv4_2
I0430 06:02:15.404400  3582 net.cpp:381] conv4_2 <- conv4_1
I0430 06:02:15.404412  3582 net.cpp:339] conv4_2 -> conv4_2
I0430 06:02:15.404423  3582 net.cpp:114] Setting up conv4_2
I0430 06:02:15.413142  3582 net.cpp:121] Top shape: 4 512 88 88 (15859712)
I0430 06:02:15.413223  3582 layer_factory.hpp:74] Creating layer relu4_2
I0430 06:02:15.413249  3582 net.cpp:85] Creating Layer relu4_2
I0430 06:02:15.413260  3582 net.cpp:381] relu4_2 <- conv4_2
I0430 06:02:15.413274  3582 net.cpp:328] relu4_2 -> conv4_2 (in-place)
I0430 06:02:15.413287  3582 net.cpp:114] Setting up relu4_2
I0430 06:02:15.413298  3582 net.cpp:121] Top shape: 4 512 88 88 (15859712)
I0430 06:02:15.413306  3582 layer_factory.hpp:74] Creating layer conv4_3
I0430 06:02:15.413324  3582 net.cpp:85] Creating Layer conv4_3
I0430 06:02:15.413332  3582 net.cpp:381] conv4_3 <- conv4_2
I0430 06:02:15.413343  3582 net.cpp:339] conv4_3 -> conv4_3
I0430 06:02:15.413358  3582 net.cpp:114] Setting up conv4_3
I0430 06:02:15.421540  3582 net.cpp:121] Top shape: 4 512 88 88 (15859712)
I0430 06:02:15.421617  3582 layer_factory.hpp:74] Creating layer relu4_3
I0430 06:02:15.421638  3582 net.cpp:85] Creating Layer relu4_3
I0430 06:02:15.421648  3582 net.cpp:381] relu4_3 <- conv4_3
I0430 06:02:15.421680  3582 net.cpp:328] relu4_3 -> conv4_3 (in-place)
I0430 06:02:15.421694  3582 net.cpp:114] Setting up relu4_3
I0430 06:02:15.421706  3582 net.cpp:121] Top shape: 4 512 88 88 (15859712)
I0430 06:02:15.421715  3582 layer_factory.hpp:74] Creating layer pool4
I0430 06:02:15.421733  3582 net.cpp:85] Creating Layer pool4
I0430 06:02:15.421742  3582 net.cpp:381] pool4 <- conv4_3
I0430 06:02:15.421753  3582 net.cpp:339] pool4 -> pool4
I0430 06:02:15.421766  3582 net.cpp:114] Setting up pool4
I0430 06:02:15.421784  3582 net.cpp:121] Top shape: 4 512 44 44 (3964928)
I0430 06:02:15.421792  3582 layer_factory.hpp:74] Creating layer conv5_1
I0430 06:02:15.421807  3582 net.cpp:85] Creating Layer conv5_1
I0430 06:02:15.421826  3582 net.cpp:381] conv5_1 <- pool4
I0430 06:02:15.421836  3582 net.cpp:339] conv5_1 -> conv5_1
I0430 06:02:15.421847  3582 net.cpp:114] Setting up conv5_1
I0430 06:02:15.430596  3582 net.cpp:121] Top shape: 4 512 44 44 (3964928)
I0430 06:02:15.430658  3582 layer_factory.hpp:74] Creating layer relu5_1
I0430 06:02:15.430681  3582 net.cpp:85] Creating Layer relu5_1
I0430 06:02:15.430693  3582 net.cpp:381] relu5_1 <- conv5_1
I0430 06:02:15.430706  3582 net.cpp:328] relu5_1 -> conv5_1 (in-place)
I0430 06:02:15.430719  3582 net.cpp:114] Setting up relu5_1
I0430 06:02:15.430732  3582 net.cpp:121] Top shape: 4 512 44 44 (3964928)
I0430 06:02:15.430739  3582 layer_factory.hpp:74] Creating layer conv5_2
I0430 06:02:15.430753  3582 net.cpp:85] Creating Layer conv5_2
I0430 06:02:15.430762  3582 net.cpp:381] conv5_2 <- conv5_1
I0430 06:02:15.430774  3582 net.cpp:339] conv5_2 -> conv5_2
I0430 06:02:15.430788  3582 net.cpp:114] Setting up conv5_2
I0430 06:02:15.438877  3582 net.cpp:121] Top shape: 4 512 44 44 (3964928)
I0430 06:02:15.438933  3582 layer_factory.hpp:74] Creating layer relu5_2
I0430 06:02:15.438953  3582 net.cpp:85] Creating Layer relu5_2
I0430 06:02:15.438982  3582 net.cpp:381] relu5_2 <- conv5_2
I0430 06:02:15.438997  3582 net.cpp:328] relu5_2 -> conv5_2 (in-place)
I0430 06:02:15.439012  3582 net.cpp:114] Setting up relu5_2
I0430 06:02:15.439021  3582 net.cpp:121] Top shape: 4 512 44 44 (3964928)
I0430 06:02:15.439029  3582 layer_factory.hpp:74] Creating layer conv5_3
I0430 06:02:15.439041  3582 net.cpp:85] Creating Layer conv5_3
I0430 06:02:15.439049  3582 net.cpp:381] conv5_3 <- conv5_2
I0430 06:02:15.439060  3582 net.cpp:339] conv5_3 -> conv5_3
I0430 06:02:15.439071  3582 net.cpp:114] Setting up conv5_3
I0430 06:02:15.447666  3582 net.cpp:121] Top shape: 4 512 44 44 (3964928)
I0430 06:02:15.447721  3582 layer_factory.hpp:74] Creating layer relu5_3
I0430 06:02:15.447744  3582 net.cpp:85] Creating Layer relu5_3
I0430 06:02:15.447756  3582 net.cpp:381] relu5_3 <- conv5_3
I0430 06:02:15.447767  3582 net.cpp:328] relu5_3 -> conv5_3 (in-place)
I0430 06:02:15.447780  3582 net.cpp:114] Setting up relu5_3
I0430 06:02:15.447790  3582 net.cpp:121] Top shape: 4 512 44 44 (3964928)
I0430 06:02:15.447798  3582 layer_factory.hpp:74] Creating layer pool5
I0430 06:02:15.447819  3582 net.cpp:85] Creating Layer pool5
I0430 06:02:15.447828  3582 net.cpp:381] pool5 <- conv5_3
I0430 06:02:15.447839  3582 net.cpp:339] pool5 -> pool5
I0430 06:02:15.447850  3582 net.cpp:114] Setting up pool5
I0430 06:02:15.447865  3582 net.cpp:121] Top shape: 4 512 22 22 (991232)
I0430 06:02:15.447873  3582 layer_factory.hpp:74] Creating layer fc6
I0430 06:02:15.447891  3582 net.cpp:85] Creating Layer fc6
I0430 06:02:15.447899  3582 net.cpp:381] fc6 <- pool5
I0430 06:02:15.447911  3582 net.cpp:339] fc6 -> fc6
I0430 06:02:15.447921  3582 net.cpp:114] Setting up fc6
I0430 06:02:15.786985  3582 net.cpp:121] Top shape: 4 4096 16 16 (4194304)
I0430 06:02:15.787077  3582 layer_factory.hpp:74] Creating layer relu6
I0430 06:02:15.787103  3582 net.cpp:85] Creating Layer relu6
I0430 06:02:15.787114  3582 net.cpp:381] relu6 <- fc6
I0430 06:02:15.787135  3582 net.cpp:328] relu6 -> fc6 (in-place)
I0430 06:02:15.787152  3582 net.cpp:114] Setting up relu6
I0430 06:02:15.787164  3582 net.cpp:121] Top shape: 4 4096 16 16 (4194304)
I0430 06:02:15.787186  3582 layer_factory.hpp:74] Creating layer drop6
I0430 06:02:15.787207  3582 net.cpp:85] Creating Layer drop6
I0430 06:02:15.787215  3582 net.cpp:381] drop6 <- fc6
I0430 06:02:15.787225  3582 net.cpp:328] drop6 -> fc6 (in-place)
I0430 06:02:15.787236  3582 net.cpp:114] Setting up drop6
I0430 06:02:15.787261  3582 net.cpp:121] Top shape: 4 4096 16 16 (4194304)
I0430 06:02:15.787272  3582 layer_factory.hpp:74] Creating layer fc7
I0430 06:02:15.787286  3582 net.cpp:85] Creating Layer fc7
I0430 06:02:15.787294  3582 net.cpp:381] fc7 <- fc6
I0430 06:02:15.787307  3582 net.cpp:339] fc7 -> fc7
I0430 06:02:15.787319  3582 net.cpp:114] Setting up fc7
I0430 06:02:15.843044  3582 net.cpp:121] Top shape: 4 4096 16 16 (4194304)
I0430 06:02:15.843130  3582 layer_factory.hpp:74] Creating layer relu7
I0430 06:02:15.843155  3582 net.cpp:85] Creating Layer relu7
I0430 06:02:15.843166  3582 net.cpp:381] relu7 <- fc7
I0430 06:02:15.843178  3582 net.cpp:328] relu7 -> fc7 (in-place)
I0430 06:02:15.843194  3582 net.cpp:114] Setting up relu7
I0430 06:02:15.843204  3582 net.cpp:121] Top shape: 4 4096 16 16 (4194304)
I0430 06:02:15.843212  3582 layer_factory.hpp:74] Creating layer drop7
I0430 06:02:15.843225  3582 net.cpp:85] Creating Layer drop7
I0430 06:02:15.843233  3582 net.cpp:381] drop7 <- fc7
I0430 06:02:15.843242  3582 net.cpp:328] drop7 -> fc7 (in-place)
I0430 06:02:15.843252  3582 net.cpp:114] Setting up drop7
I0430 06:02:15.843264  3582 net.cpp:121] Top shape: 4 4096 16 16 (4194304)
I0430 06:02:15.843273  3582 layer_factory.hpp:74] Creating layer conv8
I0430 06:02:15.843294  3582 net.cpp:85] Creating Layer conv8
I0430 06:02:15.843307  3582 net.cpp:381] conv8 <- fc7
I0430 06:02:15.843318  3582 net.cpp:339] conv8 -> score
I0430 06:02:15.843336  3582 net.cpp:114] Setting up conv8
I0430 06:02:15.844105  3582 net.cpp:121] Top shape: 4 1 16 16 (1024)
I0430 06:02:15.844158  3582 layer_factory.hpp:74] Creating layer deconv
I0430 06:02:15.844173  3582 net.cpp:85] Creating Layer deconv
I0430 06:02:15.844182  3582 net.cpp:381] deconv <- score
I0430 06:02:15.844197  3582 net.cpp:339] deconv -> bigmap
I0430 06:02:15.844208  3582 net.cpp:114] Setting up deconv
I0430 06:02:15.845293  3582 net.cpp:121] Top shape: 4 1 544 544 (1183744)
I0430 06:02:15.845329  3582 layer_factory.hpp:74] Creating layer crop_finetune
I0430 06:02:15.845346  3582 net.cpp:85] Creating Layer crop_finetune
I0430 06:02:15.845355  3582 net.cpp:381] crop_finetune <- bigmap
I0430 06:02:15.845365  3582 net.cpp:381] crop_finetune <- data_data_0_split_1
I0430 06:02:15.845374  3582 net.cpp:339] crop_finetune -> map
I0430 06:02:15.845386  3582 net.cpp:114] Setting up crop_finetune
I0430 06:02:15.845494  3582 net.cpp:121] Top shape: 4 1 500 500 (1000000)
I0430 06:02:15.845505  3582 layer_factory.hpp:74] Creating layer sigmoid
I0430 06:02:15.845518  3582 net.cpp:85] Creating Layer sigmoid
I0430 06:02:15.845535  3582 net.cpp:381] sigmoid <- map
I0430 06:02:15.845547  3582 net.cpp:339] sigmoid -> outmap
I0430 06:02:15.845558  3582 net.cpp:114] Setting up sigmoid
I0430 06:02:15.845582  3582 net.cpp:121] Top shape: 4 1 500 500 (1000000)
I0430 06:02:15.845590  3582 layer_factory.hpp:74] Creating layer loss
I0430 06:02:15.845605  3582 net.cpp:85] Creating Layer loss
I0430 06:02:15.845618  3582 net.cpp:381] loss <- outmap
I0430 06:02:15.845626  3582 net.cpp:381] loss <- inputmap
I0430 06:02:15.845638  3582 net.cpp:339] loss -> loss
I0430 06:02:15.845650  3582 net.cpp:114] Setting up loss
I0430 06:02:15.845669  3582 net.cpp:121] Top shape: (1)
…
